experts/CartPole-v1/policy.ckpt (torch, 23351 bytes, 8 tensors)

net.0.weight f4 [50, 4]
000000 2c b6 9c 3e 59 5d bd be 0e 7a 29 bc 11 48 02 bf
       0.30607736 -0.3698528 -0.0103440415 -0.50891215
000010 74 85 19 3e b8 6c 00 be 9a f7 2f bf cd b2 a9 be
       0.14992315 -0.12541473 -0.68737185 -0.33144227
000020 cc be 67 3e 3e 9e 66 be c4 56 9a bd 3a 4c f9 bc
       0.22631377 -0.22521302 -0.075360805 -0.030431855
000030 e3 a0 38 3f ed c2 a2 bd fa 10 47 3e 08 2f ab 3e
       0.72120494 -0.079473354 0.1944007 0.3343432
000040 80 de 58 be 40 ea a2 3d 08 79 26 3f 8f df f8 3e
       -0.21178627 0.07954836 0.6502843 0.48608062
000050 27 1a ad be d0 a7 21 bd f3 1d c0 3d ee 77 82 3e
       -0.33809015 -0.03946668 0.09380712 0.25482124
000060 83 82 47 be 3f 26 8e be 87 01 ed be 48 64 11 be
       -0.1948338 -0.27763554 -0.46290228 -0.1419841
000070 a5 f1 19 3c fa d1 2c bd 14 89 23 be b2 44 da 3e
       0.009395991 -0.042192437 -0.1597026 0.42630535
000080 5e 24 eb be 39 d7 96 3e ce ba c5 be 38 a2 a8 3d
       -0.45926183 0.29461077 -0.38619083 0.08234066
000090 96 1b 1b 3c 3c 1a ef bd de 6a a3 be ad d9 39 3e
       0.009467026 -0.11674926 -0.3191747 0.18149443
0000a0 90 2c 09 be 96 fb d4 be 1b bc 33 bf 89 0a dd be
       -0.13395905 -0.41598195 -0.702089 -0.431721
0000b0 66 63 bb 3e 6f 13 51 be 0e db 25 3f c2 0a 96 be
       0.36599272 -0.2041757 0.64787376 -0.29305083
0000c0 28 49 86 3e 4b db cc 3e 96 9f 23 3f 5e 75 35 3e
       0.2622769 0.40011057 0.63915384 0.17720553
0000d0 dc 24 9a bd 41 57 2d 3e 6c f1 6b 3f 7b 8b d3 3e
       -0.075265616 0.16927816 0.92165256 0.41317353
0000e0 60 c7 a6 3e f7 c4 a3 3e 6f 8c ed 3e f6 51 ad bd
       0.32573986 0.3198621 0.46396205 -0.084628984
0000f0 ac 4a 84 be 7f 23 77 3e 8e 21 1f 3f 7e bb a0 bd
       -0.2583822 0.24134634 0.62160575 -0.07848261
000100 57 0f 3e 3e 29 dc c5 be 28 a4 4b be bb 89 a8 be
       0.18560539 -0.3864453 -0.1988684 -0.3291758
000110 a1 33 8f bd d0 a0 6f be e7 74 02 3e d1 e9 4a be
       -0.06992269 -0.23401189 0.12739907 -0.19815756
000120 d4 fc 5d be 70 05 84 3e b3 d2 cd 3e e7 44 0f 3f
       -0.21678478 0.25785398 0.40199813 0.5596451
000130 f0 3c 29 be 16 cf 13 bc b3 4e 1b bf 12 83 fe bc
       -0.16527152 -0.009021541 -0.6066696 -0.031068359
000140 8d 2d 27 be 94 04 76 bd 77 66 45 bf 0c 8f 92 be
       -0.1632597 -0.06006296 -0.77109474 -0.2862476
000150 78 54 9b 3e f9 1a 92 be c0 08 b7 3e 8a fc b3 be
       0.30337882 -0.28536204 0.35748863 -0.3515361
000160 6c d4 b6 be 61 0d 36 bd 06 84 06 bf b4 ea f5 be
       -0.3570894 -0.044446353 -0.525452 -0.48030627
000170 c3 29 9b 3e 55 e9 55 be 1b 1c f8 3d 5d 25 d7 be
       0.303053 -0.2088979 0.12114736 -0.42020693
000180 a2 02 1f 3e 63 0a 26 bd 92 3d fe 3e 48 d5 d7 be
       0.15528348 -0.04053725 0.4965635 -0.42154908
000190 ee 8c 33 3e 61 40 14 be c9 8d a1 3d a4 6c 37 3e
       0.17534229 -0.14477684 0.078883715 0.17912537
0001a0 fe 73 ca 3e 4c 78 20 be 71 63 28 bd 3a 71 7c be
       0.3954162 -0.1567089 -0.04111046 -0.24652568
0001b0 53 9e 98 3e be 29 03 be ed 2e 71 bd c9 8d c4 be
       0.29808292 -0.12808892 -0.058882643 -0.38389423
0001c0 d6 fb 90 3d 5a a4 18 be 54 1c 1a be 05 53 b5 be
       0.07079284 -0.14906445 -0.15049869 -0.354149
0001d0 3e cc 9d 3e 06 f1 8e be d7 72 0f 3d c1 ac 5e bd
       0.30819887 -0.2791826 0.03502163 -0.05436397
0001e0 04 5d 2d 3d 22 4d 9c 3e 28 61 fb b9 66 08 d4 3c
       0.042325035 0.30527598 -0.00047946838 0.025882911
0001f0 2d 5f 46 bd f4 ea 7e 3c 82 0c 90 3e 24 fa 85 bc
       -0.04843061 0.015558947 0.28134543 -0.016354628
000200 e6 51 74 be 5b 06 32 be e2 59 6c 3e d2 fb 28 bb
       -0.23859367 -0.17385237 0.23081163 -0.0025784862
000210 ef b9 e8 be 1d 79 d8 3c 31 7f 79 3e 8e 6c a9 be
       -0.45454356 0.026424939 0.24364926 -0.33090633
000220 95 3b 97 3e 74 b1 4a 3d af cd cc 3e 83 6b ac 3e
       0.29537645 0.04948564 0.40000674 0.33675775
000230 f6 6c 0d bf 7b 3b 64 3e 63 74 99 3d 59 7e 1e be
       -0.55244386 0.22288315 0.07492902 -0.15477885
000240 56 48 07 be ad 1f bb bd 8a af 98 3e d2 95 e6 bd
       -0.13211188 -0.09136901 0.29821426 -0.11259045
000250 f8 1f 9d bc 9c ba a3 3d e5 83 20 bf f4 41 58 be
       -0.019180283 0.07994577 -0.62701255 -0.21118909
000260 39 cf 0d 3e a4 bb 02 3f b1 c3 1d 3f b6 b3 0b 3f
       0.1384858 0.51067567 0.61626726 0.5457109
000270 f5 07 df bd f0 0b 8a 3e f4 6c 29 3f 52 88 9d 3d
       -0.108901896 0.26962233 0.66181874 0.07692017
000280 46 e6 d7 3e 9b 79 28 3e de eb 17 bd 35 a4 ce bd
       0.42167872 0.16452639 -0.037090175 -0.10089914
000290 ee 7c 56 3e 49 c1 13 3e 6d ac c3 3d 0b 64 40 be
       0.20946094 0.14429201 0.09554372 -0.18788163
0002a0 31 5d 61 be 1c a3 bb 3e 95 c5 75 3e 9c 88 de 3e
       -0.22008206 0.3664788 0.24001153 0.434636
0002b0 1a ac 6e bf 6c 99 b7 be c0 2a 1d bf 30 70 6e be
       -0.93231356 -0.3585924 -0.61393356 -0.23284984
0002c0 aa 00 55 3e 06 d8 6a be 94 ce 29 3d 2f cb 0b be
       0.20801035 -0.22933969 0.041456774 -0.13651727
0002d0 8f e1 d9 3e 63 9a ae bd ff ef 93 be de 1f 9f 3e
       0.425549 -0.08525541 -0.2889404 0.31079
0002e0 6e 8e 84 3d 6d b3 cd 3e 8e 8e 64 3f ca 34 fe 3e
       0.06472479 0.40175954 0.8928002 0.4964965
0002f0 17 2f 0b be b4 b7 a3 3d f6 c6 c3 3e b0 2b 92 3e
       -0.13592182 0.07994023 0.38237733 0.28548956
000300 1f 8e 17 bd ce a4 42 3e cb bf 35 bf 1c 0d d2 bd
       -0.03700077 0.1900818 -0.7099578 -0.10256407
000310 24 8e c1 3d d8 30 80 be 2f 2c 1e bf 3e cd 6c be
       0.09450939 -0.25037265 -0.6178617 -0.23125169

net.0.bias f4 [50]
000000 1e 57 e3 be 4e ef 78 be 7c e8 56 be c0 38 95 be
       -0.44402403 -0.24310037 -0.20987123 -0.2914486
000010 a8 91 e3 3e e7 06 fe 3e ab 38 d1 bc 0b 64 4c 3d
       0.44447064 0.4961464 -0.025539717 0.049900096
000020 e8 f7 b2 3d af cb 4e 3d 0e 2c a5 3e 9f 20 aa 3e
       0.087386906 0.050487217 0.32260174 0.33228013
000030 e0 72 28 be 7c 2c 4a 3e 4a 33 9a 3e d1 54 db be
       -0.16450071 0.19743532 0.30117255 -0.42838147
000040 60 9b c1 3e 35 3d 06 bf fd 2d 9c 3e f5 fc 39 be
       0.37813854 -0.52437145 0.30503836 -0.18162902
000050 0d 5d 94 3e c4 6f 2c 3e ca ae d9 3e 91 c1 f3 bd
       0.28977242 0.1683951 0.42516166 -0.11902154
000060 1f 5b 48 be a7 f1 18 be c0 9f 91 3e 68 b3 e2 be
       -0.1956601 -0.14935933 0.28442192 -0.442775
000070 05 41 82 3e 03 7a 9a be b1 df a4 3e 97 aa ef be
       0.2544023 -0.30171213 0.32201913 -0.46809837
000080 53 1b ef be 6e ab 3d 3d a1 3c 6f 3c 5a c8 6f 3e
       -0.46700534 0.046306066 0.014601857 0.23416272
000090 83 71 66 3e ab 44 d3 3d 59 ed 8e be 1c 32 95 be
       0.22504239 0.10315832 -0.27915457 -0.29139793
0000a0 35 5a c6 be 17 6b 2e 3e 44 20 90 3e 6a 8f a6 3e
       -0.38740698 0.17033039 0.28149617 0.3253129
0000b0 8a 2f 53 be 73 a5 b1 bd 91 a8 f1 bd 37 97 8f 3d
       -0.20623603 -0.08674135 -0.117997296 0.07011264
0000c0 dc cc 6d be 7d 67 ec 3c
       -0.23222679 0.02885794

net.2.weight f4 [50, 50]
000000 20 8a 52 3c fb d5 8c bd 67 62 db bd 61 da cf 3d
       0.012850314 -0.06876751 -0.10712128 0.10149074
000010 e9 22 35 bc 9f 90 92 bd 92 16 f2 3d 64 e3 be 3c
       -0.0110556865 -0.071564905 0.11820711 0.023301788
000020 ba 65 34 3d c8 d2 f9 3d 42 ac 7d bd 7b 25 fe 3d
       0.044042327 0.121984065 -0.061931856 0.124094926
000030 61 1d 8d 3d 61 e2 6a 3d e9 55 f8 3c 93 8e e1 bb
       0.06890369 0.057344798 0.030314403 -0.0068834512
000040 fd 85 4b bb 3e 47 93 3d f7 e5 cb bc 78 95 85 bd
       -0.0031055205 0.07191323 -0.02488993 -0.065226495
000050 d4 b3 f6 bc 47 73 cd bd e7 89 c6 3d 87 e3 15 bd
       -0.030115046 -0.10031753 0.096942715 -0.03659394
000060 6c 16 a8 3d 24 34 23 bd d5 da 9a bd ad cf 86 3d
       0.08207402 -0.039844647 -0.0756127 0.0658258
000070 d0 1c ed bd ea 28 fa 3d 8b 55 a7 3d f6 60 1a 3d
       -0.11577761 0.12214835 0.08170613 0.037690125
000080 c0 9a f7 bd 03 69 ec 3d 84 36 e6 3d 8b 1b 69 3d
       -0.12090063 0.11543467 0.11240867 0.056911033
000090 3b 7b 04 3d a5 fd 8d 3d 75 b8 a8 bd 49 8f 00 3e
       0.032344084 0.069331445 -0.082383074 0.12554659
0000a0 18 11 a1 3d 26 e6 45 bd d1 48 02 be 93 fa 97 3c
       0.078645885 -0.04831519 -0.1272309 0.0185521
0000b0 48 52 08 3e cd 76 f5 bd a0 71 dc bc bd 51 0c 3e
       0.13312638 -0.1198555 -0.02690965 0.13703056
0000c0 3c 6d f5 3d ff 8f 1b bd ca ed 01 be 28 d3 fd bd
       0.119837254 -0.037979122 -0.12688366 -0.123937905
0000d0 0a 16 8b 3d ff 8b 22 3e 2e 41 3e 3d 9f 20 f1 3d
       0.06791313 0.15873717 0.04644888 0.117738
0000e0 7d e0 9f bd 60 dc b9 bc 8b fb 88 bd 7f d9 ab bd
       -0.078064896 -0.02268809 -0.06688603 -0.083910935
0000f0 c3 e8 9c bc 1f c3 48 bd e6 28 93 3c 1b 6c 62 3e
       -0.019153958 -0.049014207 0.017963838 0.22111551
000100 53 46 38 3d b0 d8 ff bc 5d 54 a2 bd 61 e6 01 bd
       0.04498894 -0.031231254 -0.07926247 -0.031713847
000110 89 c5 5d bd f0 ff bb 39 aa e2 49 be be 0d 94 bc
       -0.054143462 0.00035858108 -0.19715372 -0.018072959
000120 27 7a be bd 1c b0 19 3d 95 47 e8 3d be 99 f7 bd
       -0.093006425 0.037521467 0.11341778 -0.12089871
000130 5f 50 0c bb a9 55 d1 bd 76 ae 0c 3d 37 a3 85 bd
       -0.002141021 -0.102214165 0.034346066 -0.065252714
000140 8e b1 8d 3d df 8b 94 3d 93 97 1b 3d 0f 09 2f 3d
       0.069186315 0.07253241 0.03798635 0.04273325
000150 d6 fa 00 3e e0 cf 6b 3d 50 c5 e2 3d df 52 c8 bd
       0.12595686 0.057571292 0.110727906 -0.097814314
000160 03 6d 09 3e e2 a6 b1 3c b0 29 b1 3d 6f 17 0b be
       0.13420491 0.021686021 0.086505294 -0.13583158
000170 55 c6 57 bd 27 c4 42 be a8 a8 c1 3d 25 8c 0f 3d
       -0.05267938 -0.19020139 0.09455997 0.03504576
000180 a2 91 4c 3e 4f ef 26 3e 1d 83 ef bd 09 ea 66 be
       0.1997743 0.16302226 -0.1169493 -0.22550215
000190 c8 6b 77 bd 19 64 0b bd e8 98 86 3d 3e 7c 8d bd
       -0.060405523 -0.034031007 0.06572133 -0.06908463
0001a0 79 b6 96 bd 83 77 a2 3d 90 d6 f9 bd f8 10 0e bd
       -0.07359023 0.07932951 -0.12199128 -0.03468415
0001b0 af e3 ac 3d d9 3c 92 3d 28 d9 13 3d a5 20 88 bd
       0.08441865 0.07140512 0.03609577 -0.066468515
0001c0 78 6c 99 3d 36 5e 62 3d 9a 0b 44 bd 27 fe ab bd
       0.07491392 0.055265628 -0.047862627 -0.08398085
0001d0 3c 0b c1 3c 1f 0c 02 3e 04 87 2a bd 81 6a d4 3d
       0.023564927 0.12699936 -0.041632667 0.103718765
0001e0 d4 13 ae 3d 45 26 f8 3c 2e 5d 1b 3e dc 11 ce bd
       0.08499876 0.030291686 0.15172264 -0.10062
0001f0 ab 99 c9 3d 22 56 f0 bd 34 e2 d6 3d 8d 66 aa 3d
       0.09843763 -0.117351785 0.104923636 0.08320341
000200 09 ba bd 3c 20 75 d2 3d 36 78 59 3d 74 a9 cb bd
       0.023159998 0.10276246 0.053093158 -0.0994443
000210 48 95 e5 bd 38 a0 bd bc 01 a5 3e 3d 9c f9 ee bd
       -0.11210114 -0.023147687 0.04654408 -0.11668703
000220 d8 cb dc bc e9 1a f3 3d 56 3b 04 bd 0b a8 c5 3d
       -0.026952669 0.11870367 -0.03228315 0.09651192
000230 2f aa c6 3d cf 84 83 bc e4 63 a8 3c dc 43 9d bd
       0.09700429 -0.016054539 0.020555444 -0.07678959
000240 26 34 7b bd 70 96 ce bd 55 fa 61 3b 02 5b c9 bd
       -0.06132903 -0.100872874 0.0034481485 -0.098318115
000250 c8 31 03 3e c2 35 59 bc 8d 89 35 3d e1 c5 ff 3c
       0.12811959 -0.013257446 0.04432063 0.031222286
000260 24 cd ba 3d 41 44 09 bc 3f 67 2a 3d 15 07 82 bd
       0.09121159 -0.008378089 0.04160237 -0.06349007
000270 42 9e ec bd 10 ec 10 3e 2d f8 22 3c f3 c0 b7 bd
       -0.11553623 0.1415255 0.009946865 -0.08972349
000280 2e 93 ae 3d ff ff b9 ba 1b 02 ad 3d 3a b9 97 bd
       0.08524166 -0.0014190673 0.08447667 -0.07408376
000290 24 0a de bd 8d e8 06 3e 69 67 49 3d 8c dc f8 bc
       -0.10841778 0.13174649 0.049170885 -0.030378602
0002a0 13 51 be 3d 60 cc 99 bd d4 d8 68 3d b7 89 e1 3d
       0.092928074 -0.075096846 0.05684741 0.11012595
0002b0 55 ff 70 bd da bf 21 3d 38 cf be bd ba 7c eb bd
       -0.058837254 0.039489605 -0.093168676 -0.11498399
0002c0 a0 ac c9 3d 3d 0a 4f 3d 54 3e 80 3c dd 7a ec 3d
       0.09847379 0.050546873 0.01565472 0.11546872
0002d0 a5 b9 bf 3d 45 7a e0 3d 7c 87 c0 3d 00 ef 3e bc
       0.09361581 0.10960821 0.094008416 -0.011653662
0002e0 e8 47 dc 3c 83 ae 02 3c 52 43 c6 bd 7f b5 27 be
       0.026889756 0.007976177 -0.09680809 -0.16377829
0002f0 16 fd a0 3c a1 be ec bd 05 73 e2 bd c9 24 2c 3d
       0.01965193 -0.11559797 -0.110570945 0.04202727
000300 43 44 9b bc 91 e0 43 3d bc 6b 00 be fa f4 ab 3d
       -0.018953448 0.047821585 -0.12541097 0.08396335
000310 17 57 fd bb 81 6c 18 3e 19 13 f8 3c 2d 08 05 3d
       -0.007731329 0.14885141 0.030282544 0.0324785
000320 5a c7 b3 3d 5a 8b 00 3e ce 5c 10 3d 5c 26 d6 bd
       0.08778258 0.12553158 0.035244755 -0.10456535
000330 2e fb a1 3d 57 ed 02 3e fc a0 00 3e 5a ca d6 bd
       0.07909237 0.1278585 0.1256141 -0.10487814
000340 5a 6c 7d 3c ee 86 cd 3d 3f 1a 38 bc ce da da 3c
       0.015467728 0.100355014 -0.011236726 0.026715662
000350 03 09 13 be 16 f7 43 bd fc 2b ad 3c fa 44 30 bd
       -0.14358906 -0.04784306 0.021139137 -0.04303453
000360 36 17 8f 3d f2 85 15 bd 1b ab d1 bd 65 06 16 3e
       0.06986849 -0.036504693 -0.10237714 0.14650877
000370 9d 3e 16 3e df 70 5f 3d 77 17 1c 3c 18 e0 00 bd
       0.14672323 0.054551 0.009527079 -0.031463712
000380 a7 f2 44 bd fd 40 89 3d 09 88 08 be ee ae b1 3d
       -0.048082974 0.06701849 -0.13333143 0.08675943
000390 77 e7 b6 3c 97 1f ab bd 10 14 25 bd 4e 5a 21 bc
       0.022327168 -0.08355635 -0.040302336 -0.0098481905
0003a0 ca 5b 0d bd 54 3a d3 3d 54 e3 da bd 5c 62 dd 3d
       -0.034511365 0.103138596 -0.10687891 0.10809776
0003b0 65 32 c0 bd 33 07 19 3c 9c 3e 52 3c a8 85 49 bd
       -0.09384612 0.009340095 0.01283231 -0.04919973
0003c0 00 c8 9b bd 1e 13 4a 3d 3c 39 9b 3b 99 60 d7 3d
       -0.07606506 0.049334638 0.0047370475 0.105164714
0003d0 a7 06 02 be e8 88 c1 bd a3 64 d9 bd db d4 29 be
       -0.1269785 -0.09449941 -0.10614898 -0.16585104
0003e0 23 8c e1 3d 32 7d 80 bc 80 b7 0c 3a fc e2 7e 3e
       0.11013057 -0.015684698 0.000536792 0.24891275
0003f0 bc 28 0c 3e b2 81 2b be 5d 9d 5b be ec 80 9a 3d
       0.13687414 -0.16748694 -0.21446748 0.07544121

net.2.bias f4 [50]
000000 25 16 98 3d 74 52 90 bd fc 6f a0 3d 62 b0 c8 3a
       0.07426099 -0.07046977 0.07833859 0.0015311355
000010 e0 d5 81 3d 9c 9f f7 bd 4a c9 6a 3d e8 41 f5 bc
       0.063396215 -0.1209099 0.05732087 -0.029938653
000020 32 9f b9 bd da 32 c7 3d 41 4a 45 be ea 1a ba bd
       -0.09063567 0.09726496 -0.19266607 -0.09087165
000030 40 9d 0b 3d e4 37 85 bd 02 f7 68 3a 10 6f 03 bd
       0.034085512 -0.06504801 0.00088869047 -0.03208834
000040 4c 9d 9a 3d 9f ec e7 bd 87 a8 a0 3c a0 0f eb 3b
       0.07549533 -0.11324429 0.01961161 0.0071734935
000050 cd af 1b bc 86 f8 a6 bd d7 5c 20 bd be 07 13 3d
       -0.009502363 -0.08152871 -0.03915104 0.035896055
000060 74 0a a5 bd dc 3c 2b bb 48 c8 34 bd 5a a2 0a bd
       -0.080586344 -0.0026128804 -0.044136316 -0.033846237
000070 a3 05 e8 bb 7e bb 50 3d 63 86 ea 3c da d1 be 3d
       -0.00708075 0.050960056 0.028628534 0.0931737
000080 fd cc 9b 3b 33 47 32 be a0 1f 13 bc d2 b7 6c bc
       0.004754661 -0.17409973 -0.008979708 -0.014448123
000090 ce f6 d9 bd 22 02 e7 bd 13 df de 3d 7f 27 c2 3d
       -0.106427774 -0.11279704 0.10882392 0.094801895
0000a0 57 0f 0b 3d ef 3c 50 3c a0 53 e4 bd d6 9f b5 3c
       0.033950176 0.01270984 -0.11148763 0.022170942
0000b0 c2 44 ef 3d ad 65 a9 3d bc 18 04 3e b1 e7 07 3e
       0.116830364 0.08271346 0.1290006 0.13271977
0000c0 20 b3 5e 3b cf f9 4e 3d
       0.0033981279 0.050531205

net.4.weight f4 [50, 50]
000000 fb bd 76 3d 87 9c 17 be bc b4 c9 3d d3 c1 1c bb
       0.060239773 -0.14805804 0.098489255 -0.002391924
000010 e1 be f7 3d 85 d5 a7 3d 54 5c 30 3d 05 54 29 bd
       0.12096954 0.081950225 0.0430568 -0.041339893
000020 42 62 fd 3d dd 8a df 3c b0 a7 82 3d 79 48 02 be
       0.12372257 0.027287895 0.0637964 -0.12722959
000030 56 c3 72 bc 63 b1 13 bb 95 88 21 3c 64 23 69 3d
       -0.0148170795 -0.002253615 0.009859224 0.056918517
000040 b3 48 0c 3e 07 57 06 be f8 30 22 3d 49 49 d0 bd
       0.13699608 -0.13119136 0.03959748 -0.10170228
000050 63 e1 98 bd 5e 31 9c 3d 08 63 13 3d 0c a6 6c 3c
       -0.07464864 0.076266035 0.035983115 0.014443886
000060 60 09 17 3c 93 8c 99 ba 68 05 bc bd 9f 15 74 bd
       0.009218544 -0.0011714868 -0.09180719 -0.059590932
000070 f5 cf e0 3d d4 5a 8a 3d 4a 8b ef 3d c0 c9 f1 bd
       0.10977165 0.06755605 0.11696489 -0.11806059
000080 15 30 7f bd c9 69 c3 bd 26 2b e9 bd 4a 72 c3 bc
       -0.062301714 -0.09541661 -0.11385183 -0.023858208
000090 89 10 1b bd a7 57 a4 3d ca 4c a5 3d e9 3e e4 3d
       -0.037857566 0.08024531 0.08071287 0.11144812
0000a0 00 db 16 3c 8a 5b c3 3d 6e 9f 0a 3d 53 e5 36 3d
       0.009207487 0.09538944 0.03384345 0.044652294
0000b0 55 2c f0 bd d5 f9 c3 3d 2d 03 95 3d c1 37 13 bd
       -0.11727206 0.09569136 0.07275996 -0.035941843
0000c0 03 4e 82 3d fd 26 16 be 03 a3 83 bc ca d4 7f bd
       0.06362536 -0.1466331 -0.016068941 -0.06245879
0000d0 36 1e f9 bc 07 4f 9a bc 94 70 9b 3c b8 b7 23 be
       -0.030409914 -0.018836511 0.01897458 -0.15988052
0000e0 13 c2 a4 bc b7 94 f8 3d d5 49 bb 3b 03 a5 2d 3c
       -0.020112073 0.1213774 0.0057155886 0.010598424
0000f0 e8 56 91 3d 9c 45 94 bb d8 7d af 3d d4 73 5a 3d
       0.07096654 -0.0045248996 0.08568925 0.05333312
000100 dd e5 18 bc 10 0d a2 bc 41 b2 16 3d 25 52 7a 3d
       -0.009332147 -0.01978162 0.03679109 0.061113495
000110 f2 f5 00 bd bc 8e 61 3d 8a ea 07 3e 0d 75 ff 3d
       -0.03148455 0.055067763 0.13273063 0.124734975
000120 e3 a8 96 bd 23 82 11 be c4 1b 60 3e 52 6b 1f be
       -0.07356431 -0.142098 0.21885592 -0.15568283
000130 23 b5 a7 3d 70 03 82 3c 36 64 3c 3c c3 39 d1 3c
       0.08188846 0.01587078 0.0114985015 0.025540238
000140 2d 8f 74 3d d2 61 92 3d 51 4f 51 bd a5 bf a4 bc
       0.059706856 0.07147564 -0.051101033 -0.020110914
000150 84 72 90 3d 6c 85 34 3e f0 19 4e bd d3 7f e8 bd
       0.07053092 0.17629021 -0.050317705 -0.113525055
000160 fc ba 1d 3e 81 4c 13 bc bd 41 87 bd a5 d0 0e 3d
       0.1540336 -0.008990408 -0.066043355 0.034866948
000170 cb ce 11 3e 86 87 8b 3d 3b 87 9b bd ec 55 5e 3e
       0.14239042 0.068129584 -0.075941525 0.21712464
000180 a4 a6 1b be 49 15 2d bd ec 58 ad bd 35 ec 0c 3e
       -0.15200287 -0.042256627 -0.08464226 0.13761981
000190 da 92 45 bd b8 bf 9c 3d 06 30 18 be d6 dd e9 3d
       -0.04823575 0.07653755 -0.1486207 0.11419265
0001a0 31 08 03 be a3 88 af 3d d9 99 01 be 0a cf fa bc
       -0.12796094 0.08570983 -0.12656344 -0.030616302
0001b0 d6 e0 bf 3d 53 83 9c bd 1a 4c 1d 3c 07 3c 17 3e
       0.09369056 -0.076422356 0.009600664 0.14768992
0001c0 93 f1 db 3c 24 16 d7 3d 1f 60 80 3d d1 48 a7 bb
       0.02684859 0.1050227 0.06268334 -0.005105116
0001d0 f4 79 f2 bd a9 c9 69 3d 39 08 fd 3d e9 1c 29 bd
       -0.11839667 0.057077084 0.12355084 -0.041287336
0001e0 69 09 d0 bc 71 fa 3c bc ab ea 8a bd f8 2d 51 bd
       -0.025395112 -0.011534319 -0.067830406 -0.05106923
0001f0 ba 56 15 3e 95 dc 0d be 87 56 fc 3c 35 ca 9b bb
       0.14583865 -0.13853677 0.030802978 -0.0047543296
000200 ac b3 07 3d 60 90 85 3d 53 f2 0c bc ed ff 03 3e
       0.033130333 0.06521678 -0.0086026965 0.12890597
000210 2b 8e 1f 3d 19 dc 06 3e f6 b0 c0 bd 4e 59 65 bc
       0.03895394 0.13169898 -0.094087526 -0.013998343
000220 81 11 fc bd 31 2b 18 3d 25 eb b8 bd a7 b2 8e 3d
       -0.12308026 0.037150566 -0.09029225 0.06967669
000230 59 d2 94 3c f5 26 ff bd b0 52 9e 3d 79 80 f7 3d
       0.018166708 -0.12458602 0.07730615 0.12085051
000240 45 63 04 bd 9c 84 3e bd 58 6f eb 3d 7c 5e 90 bd
       -0.032321233 -0.046513185 0.114958465 -0.070492715
000250 82 ba 27 bd 2f 28 03 3d 4d 4a e8 3c cc 0e c0 bd
       -0.040949352 0.032020744 0.028355742 -0.09377822
000260 88 7b 1e 3d 7a 79 8f 39 2c c4 29 3d da f7 f0 3c
       0.038692027 0.00027365593 0.04144685 0.02941506
000270 f4 6f fd bc 64 43 2c 3d 58 3c 94 bd 62 ed 35 bd
       -0.030937172 0.042056456 -0.07238072 -0.04441584
000280 a2 cf 1d be da 35 56 bd 38 a0 c7 bd 38 45 b3 3d
       -0.15411237 -0.05229745 -0.09747356 0.08753437
000290 ad 23 c7 3d fb 41 08 be f3 a8 4f bd a5 d1 21 be
       0.097236015 -0.1330642 -0.050698232 -0.1580263
0002a0 18 a7 e8 bd a8 24 0c bd ae 9c ae 3d d9 ba 09 3e
       -0.113599956 -0.034214646 0.08525978 0.13450183
0002b0 3f c9 dc 3d 59 2d f5 bd 55 fa af bc 0e a7 01 bd
       0.10780572 -0.1197154 -0.021481672 -0.031653456
0002c0 d1 7e a5 3c c4 ad dd 3c fc 3d 8d 3d 32 a0 8a 3d
       0.020202072 0.027060397 0.06896588 0.06768836
0002d0 21 98 e0 3c 1e 21 8e 3c 26 2d 74 3d 9e 98 cb bd
       0.02741629 0.017349776 0.05961337 -0.09941219
0002e0 b6 06 a9 bd 23 4c 32 bd 5f 8f 0e be d8 78 e7 3d
       -0.08253233 -0.04352964 -0.13921879 0.11302346
0002f0 0b 5c d3 3d 22 55 5c bd 15 23 f3 3d 58 95 0c 3d
       0.1032029 -0.053792126 0.11871926 0.034322113
000300 e6 a1 36 3a bf 92 e7 bd 9a c4 da bd 3d 66 81 3d
       0.0006966874 -0.113072865 -0.1068203 0.063183285
000310 f7 46 6b 3c 84 35 59 bb b6 55 8f 3d f5 d2 e4 bd
       0.014360181 -0.003314347 0.0699877 -0.11173049
000320 0e 2a a0 bd 18 11 00 3e 3a af 8b 3d 02 f1 73 bd
       -0.07820521 0.12506521 0.06820531 -0.059556015
000330 ab 0d cc 3d 78 30 d2 bc 19 c6 0c be b9 bc 51 bd
       0.099635445 -0.025657877 -0.13747443 -0.05120537
000340 86 97 f1 3d df 4c a2 3b 52 b0 19 bc 4c 65 17 3e
       0.11796479 0.0049530114 -0.009380417 0.14784735
000350 40 a3 d6 bd 13 06 7c 3d ad 91 e4 bd d9 4d 4b bd
       -0.10480356 0.06152923 -0.11160598 -0.04963479
000360 b2 5e f7 bd a9 65 a1 3d f2 12 7f 3d d4 8b f8 bd
       -0.120786086 0.07880718 0.062273927 -0.12136045
000370 c0 a2 e8 bc dc a4 6c bd e9 83 06 3e 4d 09 96 bd
       -0.028397918 -0.05777441 0.13136257 -0.07325993
000380 1e 9f 4f 3d eb 21 5f bd 5c b3 b1 bd 63 c8 b3 bd
       0.050688855 -0.054475706 -0.08676788 -0.08778455
000390 e3 03 93 3d 1c 7f 88 bd ff bb c0 bd 03 6f 25 bd
       0.07178476 -0.06664869 -0.094108574 -0.040389072
0003a0 fe b9 62 bd 90 1d 52 bd 59 d2 ec 3d 2c 48 17 3e
       -0.055353157 -0.051297724 0.11563558 0.14773625
0003b0 c1 4a f1 bd 5a 5a cb bc 43 e4 24 3d 0f 5a b0 3b
       -0.11781836 -0.024823356 0.04025675 0.0053818296
0003c0 be 94 0b be dc dd 0b 3e 4e 23 09 3e 63 3f 05 3e
       -0.1363096 0.13658851 0.13392374 0.13012461
0003d0 ec 47 be 3d d7 34 9d 3d cd fa a9 bd 64 d7 8a bd
       0.09291062 0.07676094 -0.082997896 -0.06779364
0003e0 23 8a 0c 3e df fe 80 bd cc 9a 91 3d d1 72 4a be
       0.1372457 -0.06298613 0.07109603 -0.19770361
0003f0 9b 7a 8c 3c aa e7 88 bd aa 9e cd 3d ff 98 58 3e
       0.017148307 -0.066848114 0.100400284 0.21152113

net.4.bias f4 [50]
000000 72 2d 07 3e 28 53 9e 3d 73 9e bd bc da 94 ea 3d
       0.1320093 0.077307045 -0.023146844 0.114541724
000010 a1 60 18 bc 3c f4 28 3e 88 1f 6a bd a4 74 e4 3d
       -0.009300382 0.16499418 -0.057158977 0.1115506
000020 a9 79 e9 3b 6d d0 18 be 45 c4 b2 bd 85 ec f5 3d
       0.0071250987 -0.14923258 -0.08728842 0.12008003
000030 c1 66 d9 3d 07 de 08 be 62 3b 80 bc 3c 45 f8 3d
       0.10615302 -0.13365947 -0.015653316 0.121225804
000040 78 d7 de bc b8 51 01 3e f3 67 9b 3c 7b 81 ce bd
       -0.027202353 0.1262883 0.018970465 -0.1008329
000050 bf dc 8b 3b ad bd 27 3d b4 9f 27 3e 64 9c 81 3d
       0.0042682583 0.040952373 0.16369516 0.06328657
000060 c2 07 bb 3d 81 3c 6f 3d 6c 60 ce bd f6 98 38 3b
       0.09132339 0.05840731 -0.10076985 0.0028167344
000070 c6 d3 bc 3c dc 3f f7 3d 36 2c 1b bd 9a 79 b5 3d
       0.0230502 0.12072727 -0.03788396 0.08861084
000080 3c 4b 1b bd a7 6b 8c 3d c2 00 dd bd 14 e7 bf 3d
       -0.037913546 0.068564706 -0.1079116 0.093702465
000090 cf 57 88 bd c1 de 97 3c 38 74 b8 bc b0 6c a9 bb
       -0.06657373 0.018538835 -0.022516355 -0.0051704273
0000a0 8d f0 20 3b d0 77 3a 3d a5 d2 ed 3d f2 1b e2 3c
       0.0024557442 0.04552442 0.11612443 0.027601216
0000b0 29 79 da bd 18 1b 14 3e 5b 3c 2d 3c cd 1d a2 3d
       -0.10667641 0.1446346 0.010573472 0.0791584
0000c0 0c 8d a6 bc f1 9f 13 3e
       -0.020330928 0.14416482

net.6.weight f4 [2, 50]
000000 33 52 17 3e 40 12 74 be bc 6a 1e bd 67 36 e0 3c
       0.1477745 -0.23835087 -0.03867601 0.027369691
000010 e9 f4 f0 bd 65 cd c1 3e f3 a3 a7 be 24 2f 8a 3c
       -0.11765463 0.37852016 -0.3274227 0.016868182
000020 0b 78 a1 3d 83 67 f9 bd a6 a1 a0 3d 27 2f a3 3e
       0.078842245 -0.121779464 0.07843332 0.31871912
000030 24 4a d9 3d d2 ce c1 3e 69 0f 03 3f 50 e3 a6 ba
       0.10609844 0.37853104 0.5119539 -0.0012732539
000040 62 12 3d 3e 37 76 ce 3e fb ee 97 bd 1a 5e 1b bd
       0.18464044 0.40324566 -0.07418629 -0.03793154
000050 bb 72 c2 bd de b1 8b 3e 5b 6d 90 3e 29 e5 47 bd
       -0.09494539 0.2728414 0.28208432 -0.04880253
000060 c5 a6 00 be a1 c1 9a bd 83 87 11 3d 58 44 7a 3e
       -0.12563618 -0.07556463 0.035529625 0.24440134
000070 59 bb 7c 3d 4e 7d 7d 3e 2d 68 0b bd 45 76 93 be
       0.061702106 0.24754831 -0.034034897 -0.2880117
000080 0f e7 f2 be bb e0 5f be e3 15 9f be 8e 3b 6a 3c
       -0.4744191 -0.21863072 -0.31071386 0.0142964255
000090 b2 9a 92 3d 75 c3 2e 3c 1e aa d1 bd 1f 11 d2 3e
       0.07158412 0.010666718 -0.102375254 0.41028687
0000a0 c9 67 55 be 3a a5 04 3d 8c ba cf 3d be b2 68 be
       -0.20840372 0.032384135 0.10143003 -0.22724435
0000b0 76 f2 8a be 7e 0e 96 3e 75 57 a8 be d8 94 cd bd
       -0.27138108 0.29307932 -0.32879224 -0.10038155
0000c0 dd b2 b7 be 7e 03 cc be 2d da 66 bb 20 4e 61 3e
       -0.3587865 -0.39846414 -0.0035225258 0.22002459
0000d0 cb 06 e7 3d 12 ee 33 be b0 0a 6b 3e a7 a9 e7 be
       0.112805925 -0.17571285 0.22953296 -0.45246622
0000e0 6d ec 60 3e a7 4f d9 bd 07 e2 40 be 75 66 1c 3e
       0.2196519 -0.106108956 -0.18836223 0.1527346
0000f0 69 23 7f 3d 62 a5 95 be 51 e9 15 3d a9 5d fe be
       0.06228963 -0.2922774 0.03659946 -0.49680832
000100 4f fb af be 90 d8 13 be 2e 03 45 be c0 b6 6e be
       -0.3437142 -0.14438081 -0.19239494 -0.23311901
000110 42 c6 d3 3d b2 fe c0 3d d0 76 31 bd b7 9c 6c be
       0.10340549 0.09423579 -0.0433262 -0.23106657
000120 81 44 f0 be 60 a0 4b bd 34 f5 6f 3e 02 5d 4e 3d
       -0.46927264 -0.049713492 0.23433381 0.050381668
000130 2f 2f 95 be 5d bc c1 be b7 41 c4 bd 5a 44 99 be
       -0.2913756 -0.37839022 -0.095828466 -0.2993496
000140 ff 8b 52 3d a7 65 d8 3e e7 d8 aa 3e 6e 50 9e 3e
       0.051403042 0.42265055 0.33368608 0.30920738
000150 74 5c 0f 3e 61 ee 6d be 30 f5 91 3d 7a 17 9b 3d
       0.14000112 -0.23235466 0.07126844 0.07572837
000160 61 36 84 3d b2 5f db be 88 24 8a 3e 31 d4 dd 3d
       0.064556845 -0.42846447 0.26980996 0.10831488
000170 b8 12 c4 bc e2 50 72 3e 30 2f 3f 3e ca 6d b2 be
       -0.023934707 0.23663667 0.18670344 -0.34849387
000180 40 cf 44 3e bf f8 b4 3c c1 08 b8 3e d2 b7 ae 3e
       0.19219685 0.022091268 0.3594418 0.3412462

net.6.bias f4 [2]
000000 b3 58 aa 3d 33 74 de bd
       0.08317699 -0.10862007
