experts/BipedalWalker-v3/policy.ckpt (torch, 27831 bytes, 9 tensors)

log_std f4 [4]
0	0xbfb8a143	-1.4424213
1	0xbfc2815d	-1.5195729
2	0xbfd40b0a	-1.6565869
3	0xbfd77e93	-1.6835502

net.0.weight f4 [50, 24]
0	0x3e01a933	0.126622
1	0x3c91d8f5	0.017803648
2	0x3e33b7cc	0.17550582
3	0x3dd429cd	0.10359535
4	0x3eedbeb2	0.4643455
5	0x3f094427	0.5361962
6	0x3dea9d40	0.11455774
7	0xbe49f371	-0.19721772
8	0xbda4df67	-0.08050423
9	0xbe6e78b5	-0.23288234
10	0xbe6b4816	-0.22976717
11	0xbdd15caf	-0.10222756
12	0x3c135fee	0.008995039
13	0xbde4e028	-0.11175567
14	0x3dfb7402	0.12277986
15	0x3db15a0f	0.086597554
16	0x3d2adec4	0.041716352
17	0xbd933f8e	-0.071898565
18	0x3c200202	0.009766104
19	0xbe004a73	-0.125284
20	0xbdd83ca8	-0.10558444
21	0x3e8d73d8	0.27627444
22	0xbe0503db	-0.12989752
23	0x3cbcffbc	0.023071162
24	0xbf0d241f	-0.5513324
25	0x3e278767	0.16360246
26	0xbd571507	-0.052510288
27	0xbd9d9289	-0.07693965
28	0xbdafb6ff	-0.085798256
29	0xbe2e7f26	-0.17040691
30	0x3e3c2655	0.18373998
31	0x3d2d8d37	0.042371
32	0xbd0a15db	-0.03371225
33	0x3ba59e05	0.005054238
34	0xbe39a91e	-0.1813092
35	0xbe3670b4	-0.1781643
36	0xbe280a7b	-0.16410248
37	0xbdcc1b1a	-0.09966107
38	0x3cac2b28	0.021016672
39	0xbe3bed96	-0.1835235
40	0xbdfbd998	-0.12297362
41	0xbe3be353	-0.18348436
42	0x3dd82e3a	0.10555692
43	0xbd6a8eef	-0.05726522
44	0x3d8a3ecc	0.06750259
45	0xbe4a14d9	-0.19734515
46	0xbe332a30	-0.17496562
47	0xbe86a50b	-0.26297793
48	0x3dae0bf3	0.08498373
49	0x3d697d4d	0.05700426
50	0x3e34e28a	0.17664543
51	0x3d6c5088	0.057693988
52	0x3d0ef0a9	0.03489748
53	0xbe5f24c5	-0.2179137
54	0x3d5a5931	0.053307716
55	0x3dfd6a25	0.12373761
56	0x3db370d2	0.08761753
57	0xbe41e2d4	-0.18934184
58	0x3e59ad34	0.21257478
59	0xbdbbcfcf	-0.09170496
60	0xbc19e8d9	-0.009393894
61	0xbe59bd43	-0.21263604
62	0x3d1f8c2b	0.038952034
63	0x3df38583	0.118907
64	0xbe1542bf	-0.14576243
65	0xbe3b784e	-0.18307611
66	0xbdea3945	-0.114367045
67	0x3e21ea1a	0.15811959
68	0x3c31e31e	0.010857372
69	0xbe18e45e	-0.14930865
70	0xbe50241d	-0.20326276
71	0xbe76a586	-0.2408658
72	0xbe534221	-0.20630695
73	0x3c286064	0.010276888
74	0x3d01c1d7	0.031679
75	0xbc2b1c72	-0.010443794
76	0x3e12f555	0.14351399
77	0xbe12bc0a	-0.14329544
78	0x3e1e3744	0.1545077
79	0x3eb4d7fe	0.3532104
80	0x3b0aac14	0.0021159695
81	0xbddbd2f6	-0.10733597
82	0xbdf87bb8	-0.121329725
83	0x3e340bfc	0.17582697
84	0x3de0ae1b	0.10970708
85	0x3d98674a	0.07441576
86	0x3d3ad75c	0.04561554
87	0xbd501a0c	-0.05080609
88	0xbdce3650	-0.10068953
89	0xbe5d20e7	-0.21594582
90	0xbde4213b	-0.11139151
91	0xbe5100b5	-0.20410426
92	0x3dbc54c6	0.09195857
93	0xbe5f40e8	-0.21802104
94	0xbde2e2b6	-0.11078398
95	0x3dc201c5	0.09472994
96	0xbe97d0e6	-0.29651564
97	0x3e060d68	0.13091052
98	0x3db38ae6	0.08766727
99	0xbe6abc23	-0.22923331
100	0xbe8c68f2	-0.27423817
101	0x3e4c113b	0.19928448
102	0xbce22bd8	-0.027608797
103	0x3a8fbe6e	0.0010966787
104	0x3d45ec46	0.04832103
105	0x3de7b589	0.11313922
106	0x3d88fc6b	0.0668877
107	0x3ddcf612	0.10789122
108	0x3d89a1a1	0.067202814
109	0xbddae0aa	-0.106873825
110	0x3e19094e	0.14944956
111	0x3d3f738a	0.046741046
112	0xbb7a5fda	-0.0038204105
113	0x3def22f2	0.11676587
114	0x3d7b7102	0.06138707
115	0xbd6eedb0	-0.058332145
116	0xbd770b68	-0.060313612
117	0xbe466287	-0.19373523
118	0xbde32f31	-0.110929854
119	0xbd9cf7f3	-0.0766448
120	0xbe11d363	-0.14240794
121	0x3cc7ee98	0.024405763
122	0x3e02fe53	0.1279233
123	0xbdb58112	-0.08862509
124	0x3cfe9762	0.031078044
125	0x3dc94114	0.09826866
126	0x3d1868eb	0.037209433
127	0xbddbe4c2	-0.107369915
128	0x3e234088	0.15942585
129	0x3e63b79d	0.22238012
130	0x3d2210f9	0.039566968
131	0xbddd0d98	-0.107936084
132	0x3d68e2e0	0.05685699
133	0xbdce7682	-0.10081197
134	0xbe043162	-0.12909463
135	0xbdd278dd	-0.10276959
136	0xbdb58fca	-0.08865316
137	0x3de1bf0f	0.1102277
138	0x3d85b549	0.06528718
139	0xbe2d7bf5	-0.16941817
140	0xbdfcde87	-0.12347131
141	0xbc3dbeed	-0.011581165
142	0x3d52efa6	0.051498078
143	0x3da121ab	0.0786775
144	0xbda5d072	-0.080963984
145	0xbe2275b8	-0.15865219
146	0x3ce45a1a	0.027874995
147	0x3dbc7e4a	0.09203775
148	0x3df0e206	0.117618605
149	0xbbc163df	-0.005901798
150	0x3e5fe6db	0.21865408
151	0xbe4b7c6a	-0.19871679
152	0xbe20a654	-0.15688449
153	0xbd6ff80d	-0.05858617
154	0x3c48bb7b	0.01225173
155	0xbd9d5a69	-0.0768326
156	0xbe39219a	-0.18079224
157	0x3e26c7e3	0.16287188
158	0xbdaef164	-0.08542135
159	0x3cf1352b	0.029444298
160	0x3c9a06d6	0.018802088
161	0x3c0b9951	0.00852044
162	0x3de2825f	0.110600226
163	0xbc447644	-0.011991087
164	0xbdb057e0	-0.08610511
165	0xbdc84da5	-0.097804345
166	0xbdcbb3eb	-0.09946426
167	0xbc61eab9	-0.013788872
168	0x3eb7eafd	0.3592147
169	0xbd609f89	-0.054839645
170	0xbe26ef51	-0.1630223
171	0xbd8c617d	-0.06854532
172	0xbd81e65a	-0.06342764
173	0xbd1b4fac	-0.037917778
174	0xbee05937	-0.43818066
175	0x3d440373	0.047854852
176	0x3dc62bc0	0.096763134
177	0xbd7d1d72	-0.06179566
178	0x3bf8b1cc	0.0075895544
179	0xbd71991e	-0.058983915
180	0x3e5258ed	0.20541735
181	0xbcbb09de	-0.022831853
182	0xbc81b323	-0.01583249
183	0xbe55d2a4	-0.20881134
184	0x3d58e797	0.052955236
185	0x3e1c5c60	0.15269613
186	0xbd9cc7be	-0.07655285
187	0x3dd1b234	0.10239068
188	0x3e03a439	0.12855615
189	0xbc5c2d7e	-0.013438581
190	0xbd013282	-0.03154231
191	0xbd511fd3	-0.05105574
192	0xbe2f4e01	-0.171196
193	0x3e2f9d02	0.17149737
194	0x3e0cda8a	0.13755241
195	0x3d7ad981	0.061242584
196	0xbcfaf32f	-0.030633537
197	0x3b3a775a	0.0028452487
198	0x3e71ad08	0.23601162
199	0x3e163108	0.14667141
200	0x3ce66278	0.028123125
201	0xbdc55896	-0.09636037
202	0xbcb7f0fb	-0.022453776
203	0xbc46234e	-0.012093378
204	0x3e504865	0.20340116
205	0xbd0ec664	-0.03485717
206	0xbce5e1d1	-0.02806178
207	0xbdff43cd	-0.12464104
208	0x3d5e7a1d	0.054315675
209	0x3ddc9d27	0.10772162
210	0x3c100b32	0.008791732
211	0x3dd6f56c	0.10496029
212	0x3e46354e	0.19356272
213	0x3e44369b	0.19161455
214	0xbd541360	-0.05177629
215	0xbdba9b3e	-0.09111641
216	0x3b99607a	0.0046806904
217	0xbd8588fa	-0.06520267
218	0x3e378fbc	0.17925924
219	0x3e1971a8	0.14984763
220	0x3e36ef2f	0.17864679
221	0x3d933a30	0.07188833
222	0x3e33c599	0.17555846
223	0xbd77e66e	-0.06052249
224	0xbe4bcd6e	-0.19902584
225	0xbe52230a	-0.20521179
226	0xbe3045df	-0.17214154
227	0xbdb28077	-0.08715909
228	0xbe592089	-0.21203817
229	0x3e8ae034	0.27124178
230	0x3d4df66d	0.050283838
231	0x3de4b118	0.111665905
232	0x3e7ccc0a	0.2468721
233	0xbe041e59	-0.12902202
234	0x3de76b45	0.11299757
235	0xbdd98002	-0.10620119
236	0x3e99ac50	0.30014277
237	0x3e01f7be	0.12692162
238	0x3e434ac1	0.19071485
239	0x3e310864	0.17288357
240	0x3e26a79c	0.16274875
241	0xbdf4695d	-0.11934159
242	0x3dccfc87	0.10009103
243	0x3e02e6c3	0.12783341
244	0x3e71558e	0.23567793
245	0xbe837feb	-0.2568353
246	0xbe5d3807	-0.21603404
247	0x3e717d41	0.23582937
248	0x3e3660d5	0.17810376
249	0x3e47c54f	0.19508861
250	0x3d846e2f	0.06466328
251	0x3e979855	0.29608408
252	0x3dbe6cd0	0.09298098
253	0xbeb26e82	-0.34849936
254	0xbe259efc	-0.16173929
255	0xbe893c4f	-0.26803824

net.0.bias f4 [50]
0	0xbdf14441	-0.117805965
1	0x3dbc74d8	0.09201974
2	0x3df7c17b	0.1209745
3	0x3d43cc3a	0.047802188
4	0x3d46eef6	0.048567735
5	0x3df5edc6	0.12008242
6	0xbe3cc76a	-0.18435445
7	0x3d877c15	0.06615464
8	0xbd852ffe	-0.065032944
9	0x3de23e37	0.11047023
10	0x3e089e81	0.13341714
11	0x3e457edc	0.19286674
12	0xbe5f4884	-0.21805006
13	0x3e2d3d7e	0.16917989
14	0x3dc5a9bc	0.09651515
15	0xbe07183d	-0.1319284
16	0x3d1b01e0	0.037843585
17	0x3e50661c	0.20351452
18	0x3e5b67d7	0.2142633
19	0x3dac27f0	0.08406055
20	0xbce6f1ff	-0.028191565
21	0xbd959978	-0.073046625
22	0xbe289ef5	-0.16466887
23	0x3e0aabcc	0.13542098
24	0xbe43630f	-0.19080757
25	0xbd7dc778	-0.061957806
26	0x3d814f16	0.063139126
27	0x3e00c8d7	0.12576614
28	0xbaf29c60	-0.0018509738
29	0xbcce8bec	-0.025213204
30	0xbd8a70d1	-0.06759799
31	0xbcd81b2a	-0.02638014
32	0x3de466d9	0.11152429
33	0x3db9ae17	0.09066408
34	0xbc25f002	-0.010128023
35	0x3e0d3390	0.13789201
36	0x3e2b2a23	0.16715293
37	0xbe30caf4	-0.1726492
38	0x3e313b45	0.17307766
39	0x3d927dfd	0.071529366
40	0xbd4cef3d	-0.050032843
41	0x3e419b98	0.1890701
42	0x3de4fe09	0.11181266
43	0x3d8e729d	0.069554545
44	0x3e4c168d	0.19930477
45	0x3d80b2e2	0.06284119
46	0xbe2c72fc	-0.16840738
47	0x3e283c0f	0.1642916
48	0xbdbfee4f	-0.09371626
49	0x3e1bb729	0.15206589

net.2.weight f4 [50, 50]
0	0x3d8362fd	0.06415365
1	0x3d1551c0	0.036454916
2	0xbd371aca	-0.044703282
3	0x3d21f12a	0.039536633
4	0x3e3e1ae8	0.18564951
5	0x3df5632c	0.11981806
6	0x3dc4aa93	0.09602847
7	0xbd5bd9bb	-0.05367444
8	0xbb8c14f5	-0.004274959
9	0x3d88cbcd	0.06679497
10	0xbd5ffaee	-0.054682665
11	0xbccd403e	-0.025055047
12	0x3de6b3fe	0.112647995
13	0x3e1cfcd0	0.15330815
14	0xbdc30ef0	-0.095243335
15	0x3de9830b	0.114019476
16	0xbe02a0bf	-0.12756632
17	0x3c79f675	0.015256514
18	0x3daf5262	0.08560635
19	0xbe2a1467	-0.16609345
20	0xbdd1865e	-0.10230707
21	0xbcf2237e	-0.02955794
22	0xbc9a23bb	-0.018815866
23	0xbd0e979e	-0.034812562
24	0xbdfdab60	-0.12386203
25	0x39d1b01d	0.000399948
26	0x3df8d901	0.12150765
27	0xbdb17b6d	-0.0866612
28	0x3db4469a	0.08802529
29	0x3da808ec	0.08204827
30	0xbcdd62d1	-0.027024658
31	0xbe381e5c	-0.17980331
32	0xbdf508aa	-0.11964543
33	0x3d0003f8	0.031253785
34	0x3e2276a9	0.15865578
35	0xbda1e4d3	-0.07904973
36	0xbdf4e478	-0.119576395
37	0x3d0d1c5c	0.034450874
38	0xbd608d5c	-0.05482231
39	0x3dfc876c	0.12330517
40	0x3bbe2a21	0.005803362
41	0x3d337bc2	0.043819197
42	0xbc496125	-0.0122912275
43	0x3e0f0c07	0.13969432
44	0xbd7cf9c5	-0.061761636
45	0x3e09a318	0.13441122
46	0x3da1d710	0.07902348
47	0x3c741b7e	0.014899133
48	0x3cb3cc88	0.021948114
49	0xbd33f9f2	-0.04393954
50	0xbdb5fc04	-0.08885959
51	0xbc3c5cbf	-0.011496722
52	0x3d0fb362	0.035083182
53	0xbe18c5b8	-0.14919174
54	0xbda23d8f	-0.079218976
55	0xbc5d0031	-0.013488815
56	0x3dadca62	0.08485867
57	0x3d347b28	0.044062763
58	0xbd419e8e	-0.04727035
59	0xbcef78e5	-0.029232452
60	0xbdab0681	-0.0835085
61	0xbe0cd625	-0.13753565
62	0x3c600c4f	0.01367481
63	0xbd1373c9	-0.035999093
64	0x3dde9b25	0.10869435
65	0x3db12543	0.08649685
66	0x3df5804c	0.11987361
67	0xbdb9fc39	-0.09081311
68	0xbdb15293	-0.08658328
69	0xbc3fcab2	-0.011706041
70	0xbc3775a8	-0.011197485
71	0xbdf24cbd	-0.11831043
72	0xbe11574c	-0.14193457
73	0x3dc93454	0.09824434
74	0xbd526e3d	-0.051374663
75	0x3da71ceb	0.081598125
76	0x3d6c71a9	0.057725582
77	0xbcd1eeb2	-0.025626514
78	0xbda96c1a	-0.08272572
79	0xbd95a469	-0.073067494
80	0xbe1835b4	-0.14864236
81	0xbd8fb2db	-0.07016536
82	0xbd04b938	-0.0324032
83	0x3d002ad3	0.03129084
84	0xbcda3369	-0.026635842
85	0x3dc3c1f0	0.09558475
86	0xbdc2024b	-0.094730936
87	0xbc43bfed	-0.011947614
88	0xbdce44d6	-0.10071723
89	0x3def814f	0.116945855
90	0x3e1b94ef	0.15193532
91	0xbd9b30bf	-0.07577657
92	0xbd055ced	-0.032559324
93	0xbdaa20e1	-0.083070524
94	0xbe40aed6	-0.18816695
95	0xbc3da183	-0.011574152
96	0xbd246422	-0.040134557
97	0x3b6c741e	0.0036079953
98	0x3e238505	0.15968712
99	0xbdeaa089	-0.11456401
100	0xbd75c97b	-0.0600066
101	0x3ce7a6b5	0.028277734
102	0x3cb42c60	0.021993816
103	0xbe200067	-0.15625153
104	0xbd900e35	-0.0703396
105	0x3d4eec19	0.05051813
106	0x3d9ee31a	0.0775816
107	0xbdaa7c7d	-0.083245255
108	0x3cd9c087	0.026581062
109	0xbd84dd31	-0.064875014
110	0xbd6e9a39	-0.058252547
111	0xbdff7f25	-0.12475423
112	0xbdbdf2a3	-0.09274795
113	0x3d5f66c0	0.05454135
114	0xbca342c1	-0.019929292
115	0xbd96ae1c	-0.073574275
116	0xbda3ba9d	-0.07994578
117	0xbd9a1017	-0.075226
118	0xbe1a0bb0	-0.15043521
119	0x3d9acc18	0.07558459
120	0x3e2d4de6	0.16924247
121	0xbd814676	-0.063122675
122	0xbe03227f	-0.12806128
123	0xbe336d8b	-0.17522256
124	0x3da365e8	0.079784214
125	0x3e25be99	0.16185988
126	0xbdb778b1	-0.08958567
127	0x3d8ece87	0.06972986
128	0xbd9bc1d6	-0.07605331
129	0x3d8b587a	0.06803985
130	0xbda06991	-0.07832635
131	0x3dfd2ff4	0.12362662
132	0xbdfc9ba8	-0.123343766
133	0x3d3c404b	0.045959752
134	0x3c126bad	0.008936805
135	0x3b140818	0.0022587832
136	0x3c87e5ac	0.016589008
137	0x3de2f003	0.11080935
138	0xbe30116a	-0.17194143
139	0xbe1ae77a	-0.15127364
140	0xbb95a18a	-0.004566376
141	0xbcabea14	-0.02098564
142	0xbc0bef64	-0.008540962
143	0xbd69a48a	-0.057041682
144	0x3dcc9150	0.09988654
145	0x3d654e0c	0.055982634
146	0xbd6af532	-0.057362743
147	0xbb93daa2	-0.004512147
148	0x3d548a11	0.051889483
149	0xbde163a1	-0.11005331
150	0xbcfabe5f	-0.030608354
151	0x3e84ffec	0.25976503
152	0x3e028836	0.12747273
153	0xbd0ba9fa	-0.03409765
154	0xbcafd45a	-0.021463562
155	0xbcefe3b4	-0.029283382
156	0xbb1e23d9	-0.0024130254
157	0xbe4fe801	-0.20303346
158	0x3e48a48e	0.19594023
159	0xbc91c73b	-0.017795196
160	0xbdae30d6	-0.085054085
161	0x3d46b824	0.048515454
162	0x3e21221f	0.15735672
163	0xbdba2ca5	-0.090905465
164	0xbdbc958d	-0.09208212
165	0x3e0ac8ae	0.13553116
166	0xbe200a8b	-0.15629022
167	0xbe0c74be	-0.13716409
168	0x3c8b566b	0.01700898
169	0xbde1d858	-0.110275924
170	0x3e24447e	0.16041753
171	0xbdd42207	-0.10358053
172	0x3df9f99b	0.122058116
173	0xbda50670	-0.080578685
174	0x3ca3e0c7	0.020004643
175	0x3e142460	0.14467001
176	0xbcf11027	-0.029426647
177	0xbdc9a3af	-0.09845673
178	0x3e7bd4a4	0.24592835
179	0xbc25c04b	-0.010116647
180	0x3c9747b7	0.018466813
181	0x3cf7ae3d	0.03023445
182	0x3e597a44	0.21238047
183	0x3c5f198b	0.01361693
184	0xbe0b5577	-0.13606821
185	0x3df4dfdf	0.119567625
186	0x3d05fc0b	0.03271107
187	0x3e20cc76	0.15702996
188	0xbd4905a8	-0.04907766
189	0x3e39a25a	0.18128338
190	0xbdd19085	-0.10232643
191	0xbe0b8e20	-0.13628435
192	0x3cd624f4	0.026140667
193	0x3daa2f68	0.08309823
194	0xbd981f69	-0.07427866
195	0xbd6436dd	-0.055716384
196	0x3cfe0ea5	0.031012842
197	0xbcc19595	-0.023630897
198	0xbda8b988	-0.08238512
199	0xbe23cf16	-0.15996966
200	0xbdc1d57b	-0.09464546
201	0x3da273a6	0.079322144
202	0x3e1215c0	0.1426611
203	0x3d12f518	0.03587827
204	0x3d74849f	0.05969679
205	0xbcea70c6	-0.028618228
206	0xbc0befe6	-0.008541083
207	0x3e26d06a	0.16290441
208	0x3daaec89	0.08345897
209	0xbdd56c1d	-0.104210116
210	0x3e2d4cf6	0.1692389
211	0xbe094656	-0.13405737
212	0x3d2b8bc2	0.04188133
213	0xbccbd7c3	-0.024883157
214	0xbdcbd850	-0.09953368
215	0xbdeed926	-0.116625115
216	0xbd2db6ed	-0.04241078
217	0xbd95faad	-0.07323203
218	0x3df3e8c0	0.11909628
219	0x3e101f96	0.14074549
220	0xbe0f0490	-0.13966584
221	0xbdbaaf5b	-0.09115478
222	0xbd3b0daa	-0.045667328
223	0x3dcb72b2	0.09933986
224	0x3d3797b1	0.0448224
225	0xbd2db401	-0.042407993
226	0xbc8059bf	-0.015667794
227	0xbd5fd8ef	-0.054650243
228	0x3d2470d3	0.04014666
229	0xbd8d46ec	-0.06898293
230	0xbe0b180f	-0.13583396
231	0xbdbbf91e	-0.09178375
232	0xbd8c6280	-0.06854725
233	0x3c31b94a	0.010847399
234	0x3e0779d4	0.13230067
235	0xbddcdfe4	-0.10784891
236	0x3de5c486	0.112191245
237	0x3c9fead1	0.019521149
238	0x3cb58280	0.022156954
239	0xbc3d5f1b	-0.011558319
240	0xbcff1228	-0.031136587
241	0x3d67d7c0	0.05660224
242	0xbdc3ace0	-0.09554458
243	0xbe014d3c	-0.12627119
244	0xbe400ff4	-0.18756086
245	0x3d4bfb71	0.04980034
246	0xbdcc33f9	-0.099708505
247	0xbdbedb46	-0.09319167
248	0xbd5a61e9	-0.05331603
249	0x3d3fbdd2	0.046811886
250	0xbe424f81	-0.18975641
251	0x3dd50e32	0.10403098
252	0x3ca219e9	0.019787746
253	0x3c8dc990	0.017308027
254	0x3d43ba56	0.047785126
255	0x3d469e38	0.048490733

net.2.bias f4 [50]
0	0xbd8afca1	-0.067864664
1	0x3d4c1338	0.049823016
2	0xbe378b7b	-0.17924301
3	0xbcbb7595	-0.022883216
4	0xbd15d75f	-0.036582347
5	0xbc917bc1	-0.017759206
6	0xbca3c3f0	-0.019990891
7	0x3be80763	0.0070809587
8	0x3d9fc975	0.07802097
9	0xbbe26d5f	-0.0069100107
10	0xbcb35952	-0.021893177
11	0xbd2ca6d7	-0.0421513
12	0xbbfadb77	-0.007655557
13	0xbded4384	-0.11585143
14	0xbd4148df	-0.047188636
15	0xbde4ce03	-0.11172106
16	0x3c06cf6c	0.008228164
17	0xbcf77795	-0.030208388
18	0x3dfc2b88	0.123129904
19	0x3dda880b	0.106704794
20	0xbac51d9c	-0.0015038732
21	0xbdad24ba	-0.08454271
22	0x3d33a088	0.043854266
23	0xbe00f18c	-0.12592143
24	0xbccf76d6	-0.02532522
25	0xbdaba4da	-0.08381052
26	0xbd65bd72	-0.056088872
27	0xbe2d46f6	-0.169216
28	0xbdb2a72a	-0.0872329
29	0xbd2403c2	-0.040042646
30	0x3d8510a4	0.064973146
31	0x3ac94491	0.0015355517
32	0x3e44f8ce	0.19235536
33	0x3e011d0b	0.12608735
34	0xbcfc12f6	-0.03077076
35	0x3d98d8a1	0.07463194
36	0x3d00bcaa	0.031429924
37	0x3d783128	0.060593754
38	0x3de7b875	0.11314479
39	0x3d124f7c	0.035720333
40	0x3df07c98	0.11742514
41	0x3e509a3f	0.2037134
42	0x3dd33657	0.10313099
43	0x3dc1243b	0.094307385
44	0x3cf96680	0.030444384
45	0xbd477b47	-0.04870155
46	0x3d017256	0.03160318
47	0x3b37051d	0.0027926632
48	0xbb839016	-0.004014979
49	0x3e197799	0.14987029

net.4.weight f4 [50, 50]
0	0xbd509834	-0.050926402
1	0x3d13a8cc	0.03604965
2	0x3d482d00	0.04887104
3	0x3dc3bc4e	0.09557401
4	0xbcb7e8fd	-0.022449965
5	0xbd6bec63	-0.057598483
6	0x3e0b8323	0.13624243
7	0x3dc36304	0.0954037
8	0xbd11a534	-0.03555794
9	0xbe067a5c	-0.13132614
10	0x3db9d0b8	0.09073013
11	0x3dda7391	0.10666574
12	0xbde2b6db	-0.11070033
13	0xbdc96337	-0.09833377
14	0x3daf26e5	0.085523404
15	0xbd5cf468	-0.05394402
16	0xbceaa316	-0.028642219
17	0xbdc81f7f	-0.097716324
18	0x3d313b26	0.0432693
19	0x3e185a8d	0.14878292
20	0x3d0a9851	0.033836666
21	0x3d2312cd	0.03981285
22	0xbe087e0c	-0.13329333
23	0xbbd5a466	-0.006519842
24	0x3d5c54ac	0.053791687
25	0xbd7df276	-0.061998807
26	0x3dc4301f	0.09579491
27	0x3c080c76	0.008303752
28	0x3dc075d2	0.093974724
29	0xbd8d6dac	-0.06905684
30	0x3d8582c8	0.06519085
31	0xbb4372e1	-0.0029823112
32	0xbddfafe2	-0.10922219
33	0xbd193957	-0.0374082
34	0xbdb0563b	-0.08610197
35	0xbddf6b09	-0.10909087
36	0x3dcd9e38	0.100399435
37	0x3cf1f01c	0.029533438
38	0xbcf9a6ff	-0.030475138
39	0x3c799d14	0.015235204
40	0xbe31dab7	-0.1736859
41	0xbe84bbad	-0.25924435
42	0xbdda246e	-0.1065148
43	0xbd941993	-0.072314404
44	0x3dc7a5e3	0.09748437
45	0x3cc06129	0.02348383
46	0xbdade9a9	-0.08491833
47	0xbe1fa413	-0.15589933
48	0x3d4f3878	0.050590962
49	0xbe19f386	-0.15034303
50	0x3dec0253	0.11523881
51	0x3dd80be2	0.105491415
52	0x3e11e20f	0.14246391
53	0xbdb0a4dc	-0.086251944
54	0xbce2b53b	-0.027674308
55	0xbdcc801b	-0.09985372
56	0xbdfebacd	-0.12437973
57	0x3dd39a81	0.10332204
58	0xbda23e29	-0.07922012
59	0xbd618759	-0.05506072
60	0xbda0f2ac	-0.07858786
61	0xbd444ccc	-0.0479248
62	0x3df44c81	0.119286545
63	0xbd80020c	-0.062503904
64	0x3d5b9031	0.05360431
65	0xbdb4739f	-0.088111155
66	0x3e19c94a	0.15018192
67	0x3dbd727f	0.09250354
68	0xbc56aca0	-0.01310268
69	0x3da8995e	0.082323775
70	0x3dbcef01	0.09225274
71	0x3cab1731	0.020885082
72	0x3d040fa5	0.032241482
73	0xbe05e8cf	-0.1307709
74	0xbdb745ef	-0.08948886
75	0xbc9a5f5e	-0.018844303
76	0x3dc558a2	0.09636046
77	0x3e0eb2c7	0.13935386
78	0xbd2dd6c3	-0.04244114
79	0xbda04436	-0.0782551
80	0x3d91546c	0.0709618
81	0x3c63f18f	0.0139125725
82	0xbdd358e7	-0.10319691
83	0xbdbb2f02	-0.091398254
84	0xbdb7dcf8	-0.08977693
85	0xbda4f4f5	-0.08054534
86	0xbdb963fa	-0.09052272
87	0xbca45d94	-0.020064153
88	0x3d47ac03	0.048748028
89	0xbc460db4	-0.012088228
90	0x3dd43750	0.103621125
91	0x3dc79fb3	0.09747257
92	0x3daf2fa6	0.0855401
93	0xbb636e51	-0.0034703205
94	0xbd413bec	-0.047176287
95	0xbd96f37e	-0.07370661
96	0x3dc26e8f	0.09493744
97	0x3b077958	0.0020671692
98	0x3d3da6ca	0.04630164
99	0x3bb1c25f	0.005424782
100	0xbcdef04c	-0.027214192
101	0x3c9aad0b	0.018881341
102	0xbe10f4af	-0.1415584
103	0xbd850ee9	-0.064969845
104	0xbbde9601	-0.006792784
105	0xbd8f9233	-0.07010307
106	0x3de7dc01	0.11321259
107	0x3b613009	0.0034360907
108	0x3cb19d10	0.021681339
109	0x3dd65885	0.104661025
110	0xbdc2b108	-0.09506422
111	0xbde07f4b	-0.10961779
112	0x3dbb4950	0.091448426
113	0x3d97033e	0.07373665
114	0xbdaab5ea	-0.083354786
115	0xb9cad226	-0.00038685015
116	0xbdf57b42	-0.119864
117	0x3d95b363	0.07309606
118	0x3cf7dfa6	0.030258011
119	0xbe01ad56	-0.12663779
120	0xbe0ce232	-0.13758162
121	0xbd096a24	-0.03354849
122	0x3d54d6fe	0.051962845
123	0x3de41027	0.11135893
124	0xbdc5de77	-0.096615724
125	0xbd50b63d	-0.050955046
126	0xbd1faebd	-0.038985003
127	0xbdb8e0ab	-0.09027227
128	0xbd28dc73	-0.04122586
129	0xbd979608	-0.07401663
130	0x3dcb9290	0.09940064
131	0xbdf7ce9f	-0.12099957
132	0xbd2dffe3	-0.04248036
133	0xbc11f5b3	-0.008908677
134	0xbdd8b8e3	-0.10582139
135	0xbd060742	-0.032721765
136	0x3daf7ad9	0.08568353
137	0xbe0316cf	-0.1280167
138	0xbd9070cf	-0.070527665
139	0x3cb67371	0.022271844
140	0xbc9b74c5	-0.018976578
141	0xbda22bfd	-0.07918546
142	0xbdb8b40f	-0.090187185
143	0xbe1297c6	-0.1431571
144	0x3d079122	0.033097394
145	0xbe13e417	-0.14442478
146	0xbdd01667	-0.10160523
147	0xbcf2e5a0	-0.02965051
148	0x3dc962b6	0.09833281
149	0x3c84ca21	0.016209664
150	0x3df16a75	0.11787883
151	0x3cf78053	0.030212557
152	0x3e3edad9	0.18638171
153	0x3e15c83e	0.14627168
154	0x3dc9145c	0.09818336
155	0xbcd0c96b	-0.025486669
156	0xbde38267	-0.11108857
157	0xba2adfc2	-0.0006518328
158	0xbe2054b3	-0.1565731
159	0xbbe99c75	-0.007129247
160	0x3a5cdd77	0.0008425335
161	0x3da4cb2b	0.08046564
162	0xbd53e710	-0.05173403
163	0x3e172bdc	0.14762825
164	0x3d4ce2cb	0.050020974
165	0x3dafb01c	0.08578512
166	0xbe0f68fc	-0.14004892
167	0x3ccf9617	0.025340123
168	0x3cd409d7	0.025883598
169	0xbe29dab7	-0.1658734
170	0x3e200399	0.15626372
171	0xbe131a3f	-0.14365481
172	0xbd25f4df	-0.04051673
173	0x3d2de829	0.042457733
174	0x3e20fb75	0.15720923
175	0xbd51b9b6	-0.0512025
176	0xbe09dc68	-0.13462985
177	0x3e43cb3f	0.19120501
178	0x3d8300c7	0.06396633
179	0x3e102937	0.14078222
180	0xbd3210df	-0.04347312
181	0xbd8f584e	-0.06999265
182	0x3d9f8dd4	0.077907234
183	0xbd7923b0	-0.06082505
184	0xbd827cef	-0.063714854
185	0x3db380e0	0.08764815
186	0x3de6f936	0.11278002
187	0x3e0ea090	0.13928437
188	0xbde089e4	-0.109638005
189	0xbcf99b2a	-0.030469496
190	0xbd8c75bb	-0.06858393
191	0xbca1a75a	-0.01973312
192	0x3d0bc835	0.03412648
193	0xbd4c7d16	-0.04992398
194	0x3d8b9a26	0.06816511
195	0x3c025035	0.007953693
196	0x3e0da727	0.13833295
197	0xbcb571fb	-0.022149077
198	0xbe0a9908	-0.1353494
199	0x3d6f800a	0.058471717
200	0x3d106d8d	0.035260726
201	0x3d1de1db	0.03854547
202	0xbe2a36a9	-0.16622414
203	0x3d17c6de	0.03705489
204	0xbccc554c	-0.024943016
205	0xbe358eb4	-0.17730218
206	0xbd66ecd6	-0.056378208
207	0xbb8033c8	-0.003912423
208	0xbda2fc63	-0.07958295
209	0xbe0b751b	-0.13618891
210	0x3e2aa0c0	0.16662884
211	0x3c7394a9	0.014866986
212	0x3e024c0c	0.12724322
213	0xbc51ab65	-0.012797211
214	0xbe079bb4	-0.1324299
215	0x3d6710f0	0.056412637
216	0x3d41e6c8	0.04733923
217	0x3dbed6ff	0.09318351
218	0xb8582164	-5.152951e-05
219	0x3dbca4ad	0.09211097
220	0xbddaea9b	-0.10689279
221	0x3de219d6	0.11040084
222	0x3d71eaa9	0.05906168
223	0x3b3edd00	0.0029123425
224	0x3d977f40	0.07397318
225	0xbcb41b57	-0.021985693
226	0x3dc71268	0.097203076
227	0xbe530ce2	-0.20610383
228	0x3bc033d2	0.0058655525
229	0xbcdb5fe5	-0.026779125
230	0xbd96e23d	-0.0736737
231	0xbde595af	-0.112101905
232	0x3dfcbf7c	0.1234121
233	0x3e19f871	0.15036179
234	0x3c3238bb	0.010877783
235	0x3d82b9f7	0.06383126
236	0xbdacf87a	-0.08445831
237	0xbe0add20	-0.13560915
238	0x3d404888	0.04694417
239	0xbdd0a2fe	-0.10187338
240	0x3e10ce04	0.14141089
241	0x3dfff00c	0.12496957
242	0xbdbd98d0	-0.09257662
243	0xbe3aa7c4	-0.1822806
244	0xbc97a436	-0.018510919
245	0xbe1177c8	-0.14205849
246	0xbd9227c5	-0.07136492
247	0xbcb7912a	-0.022408087
248	0x3d2f21c6	0.04275682
249	0x3d53c41a	0.05170069
250	0x3dac7364	0.084204465
251	0x3d9352e5	0.07193545
252	0x3d182b9d	0.037150968
253	0x3e1c5241	0.15265752
254	0xbdccbdd4	-0.09997144
255	0x3d350bd5	0.044200737

net.4.bias f4 [50]
0	0xbe122bf7	-0.14274584
1	0x3d4be305	0.04977705
2	0x3e0493e1	0.12947036
3	0xbd861cfb	-0.06548496
4	0x3e052bd7	0.13005005
5	0xbdf9ff76	-0.122069284
6	0xbdf8fcfb	-0.12157627
7	0xbdaa6d7c	-0.08321664
8	0xbca92c1d	-0.020650918
9	0xbdcf7d01	-0.101312645
10	0x3e3e53e7	0.18586694
11	0xbcffefc5	-0.03124226
12	0x3d9a97a5	0.07548455
13	0x3d219e24	0.039457455
14	0xbe0f6a55	-0.14005406
15	0x3d8b68f8	0.068071306
16	0x3ca80057	0.020507975
17	0x3daf6a9d	0.08565257
18	0x3db274b6	0.08713667
19	0xbd77d046	-0.06050136
20	0x3dba7da9	0.09105999
21	0x3def979b	0.11698838
22	0x3d472697	0.048620787
23	0x3cd28096	0.02569608
24	0xbd2514c8	-0.04030302
25	0xbced584c	-0.028972767
26	0x3d488d76	0.048963033
27	0xbcb06b82	-0.021535639
28	0x3ce27843	0.027645236
29	0xbe4d94fd	-0.20076366
30	0x3c552f36	0.013011744
31	0xbcfc63f3	-0.030809378
32	0xbdad364d	-0.08457623
33	0x3b9afffa	0.004730222
34	0x3e24d6e9	0.16097607
35	0xbe037046	-0.12835798
36	0xbd84a654	-0.06477037
37	0x3e31acdd	0.17351098
38	0xbe1a25ca	-0.15053478
39	0xbd6125bc	-0.054967627
40	0xbe35ee99	-0.17766799
41	0x3dd0c00a	0.101928785
42	0x3df1f0c8	0.118135035
43	0x3dd63de9	0.10461027
44	0x3bdb8fd8	0.006700497
45	0xbd0e1f9d	-0.034698118
46	0x3dc8f5dd	0.0981252
47	0xbd813647	-0.06309181
48	0xbc81a6f5	-0.015826682
49	0xbdcb5468	-0.099282086

net.6.weight f4 [4, 50]
0	0x3ea93fa9	0.3305638
1	0x3cdad6ff	0.026713846
2	0xbe339c41	-0.17540075
3	0xbe214942	-0.15750602
4	0xbe39d5bb	-0.18147938
5	0x3da2b7ba	0.07945199
6	0x3e8b4384	0.27199948
7	0x3f02ea00	0.51138306
8	0x3e33c9c6	0.17557439
9	0xbe0c8574	-0.13722783
10	0xbe0515f9	-0.12996663
11	0x3e9446a7	0.28960153
12	0xbddb44e2	-0.10706498
13	0xbe1431f1	-0.14472176
14	0x3eb69897	0.35663292
15	0xbe35ea51	-0.17765166
16	0x3e5862ea	0.21131483
17	0x3e571b7e	0.21006581
18	0x3d51587a	0.05110977
19	0xbc4cc851	-0.012498931
20	0xbc3c74e0	-0.011502475
21	0x3d5c4906	0.053780578
22	0xbe885e23	-0.2663432
23	0x3e7a90e5	0.24469335
24	0x3d5eab43	0.054362547
25	0xbc32444d	-0.010880542
26	0xbe8ad6f5	-0.27117124
27	0x3dd52279	0.10406966
28	0x3d839957	0.06425732
29	0xbe8aafe1	-0.2708731
30	0x3e7d9dbe	0.24767205
31	0x3d5913fd	0.052997578
32	0xbe9fcf1f	-0.31212708
33	0xbe01cdfa	-0.1267623
34	0xbe2143aa	-0.15748468
35	0x3d93fc51	0.0722586
36	0xbe82aeaa	-0.25523883
37	0xbe334e44	-0.17510325
38	0xbe6fbf4d	-0.23412819
39	0xbdb386f5	-0.087659754
40	0x3caf0be0	0.021367967
41	0x3eb4ac37	0.3528764
42	0xbd944ad9	-0.072408386
43	0xbe40e3b0	-0.18836856
44	0xbe93385c	-0.28753936
45	0x3e2e5069	0.17022862
46	0xbe444a08	-0.19168866
47	0x3e003cbc	0.12523168
48	0xbe65edf1	-0.22454049
49	0x3e9cb3fb	0.30606064
50	0xbcedd0ac	-0.029030167
51	0xbd3596d5	-0.044333298
52	0x3d642f63	0.055709254
53	0xbe900269	-0.2812684
54	0x3eb4b8e0	0.35297298
55	0xbd35b797	-0.044364538
56	0x3da0b2f9	0.07846636
57	0xbd863ec1	-0.06554938
58	0xbe119017	-0.14215122
59	0x3d4eefb4	0.050521567
60	0x3dfd1f59	0.12359495
61	0x3ddf75c4	0.10911134
62	0x3dcab76c	0.09898266
63	0xbd87619c	-0.066104144
64	0xbda41b8e	-0.08013068
65	0xbde9e770	-0.11421096
66	0x3ea040bb	0.31299385
67	0x3e73f5b0	0.23824191
68	0x3d06d5d5	0.03291877
69	0xbdda33ee	-0.10654436
70	0xbccca114	-0.024979152
71	0x3e1e969b	0.15487139
72	0xbd3f6431	-0.04672641
73	0x3e1b38f1	0.1515844
74	0x3d94a558	0.07258099
75	0xbdcaedb2	-0.09908618
76	0xbd0ca20c	-0.034334227
77	0xbdab4da2	-0.08364417
78	0x3e29c9d9	0.16580905
79	0xbdbc24ec	-0.0918673
80	0xbe02929c	-0.1275124
81	0x3e8dc96b	0.27692732
82	0xbe3fb285	-0.18720444
83	0xbcfb662e	-0.030688372
84	0x3d75f5f7	0.060049023
85	0xbeafc5cc	-0.34330595
86	0x3d9e1281	0.07718373
87	0xbec0593a	-0.37568074
88	0xbe030bf0	-0.12797523
89	0xbd97c116	-0.07409875
90	0xbdce4bdc	-0.10073063
91	0x3e791cb6	0.24327359
92	0xbe1a4ff8	-0.15069568
93	0xbd435d63	-0.047696482
94	0xbd3b0172	-0.045655675
95	0xbd91be9f	-0.07116436
96	0xbc591120	-0.013248712
97	0xbe148e17	-0.14507328
98	0x3df1d18b	0.11807545
99	0xbe24eb42	-0.16105369
100	0x3d6996e2	0.05702866
101	0x3b5f8ce4	0.0034111077
102	0x3d41c7d4	0.04730971
103	0x3d098f59	0.033583973
104	0x3defbe57	0.11706226
105	0xbd44f391	-0.048083846
106	0xbe669cb7	-0.2252072
107	0x3d4d6515	0.050145227
108	0xbe271616	-0.16317019
109	0xbd471d55	-0.048611958
110	0x3dac2ec2	0.08407356
111	0xbd93e71b	-0.07221814
112	0x3d9d8660	0.076916456
113	0xbdab6559	-0.0836894
114	0xbdb7f583	-0.089823745
115	0x3e42e8e6	0.19034156
116	0xbe29e39d	-0.16590734
117	0xbd6cdf82	-0.05783034
118	0x3dacc021	0.08435083
119	0xbdf0d9df	-0.117603056
120	0x3d39e562	0.045384772
121	0xbe49bcb7	-0.19700895
122	0x3e2a6aec	0.1664235
123	0xbe0b7a33	-0.13620834
124	0xbdf68cc9	-0.120385714
125	0x3dc48855	0.09596316
126	0x3dacc169	0.084353276
127	0xbdcd0852	-0.100113526
128	0xbcff2a7e	-0.031148192
129	0xbc7719e4	-0.015081856
130	0xbda22d4f	-0.07918798
131	0xbe2b46c2	-0.1672621
132	0x3e3d8f01	0.18511583
133	0xbbbb40fa	-0.005714533
134	0x3d9d7a04	0.07689288
135	0x3d05d1c5	0.032670755
136	0x3de91977	0.1138181
137	0x3eb568e6	0.35431594
138	0x3de5e16c	0.112246364
139	0x3e1a98c9	0.15097345
140	0xbe2ba3fc	-0.16761774
141	0xbe4d55b4	-0.20052224
142	0x3e8e20b9	0.2775934
143	0x3d599d91	0.053128783
144	0x3da77d98	0.08178252
145	0x3dd0dcd3	0.10198369
146	0x3dcde519	0.100534625
147	0x3de0e3ab	0.10980924
148	0x3d8aa02d	0.06768832
149	0xbd199d5d	-0.03750359
150	0x3e28c853	0.16482668
151	0x3cccb963	0.024990743
152	0xbd7b0f69	-0.061293993
153	0x3e874c31	0.26425317
154	0xbe5f79ab	-0.21823756
155	0x3e7ffa2f	0.24997781
156	0xbd46324d	-0.048387814
157	0xbda4ee8b	-0.08053311
158	0xbc47c1c5	-0.012192194
159	0xbd844537	-0.06458514
160	0xbd1f490e	-0.03888803
161	0x3d68625d	0.05673443
162	0x3d845bc4	0.064628154
163	0x3bdaf463	0.006681965
164	0x3e01e79e	0.12686011
165	0xbd9f3e43	-0.07775547
166	0x3d955649	0.07291848
167	0xbd1597f8	-0.03652188
168	0x3e665a22	0.2249532
169	0x3e3c7041	0.18402196
170	0x3cb98aac	0.022649132
171	0xbea5dbc4	-0.3239423
172	0x3d8ae1f9	0.06781382
173	0x3e3e6674	0.1859377
174	0xbd734e36	-0.05940076
175	0x3e293cf6	0.16527161
176	0x3bbf77d9	0.0058431444
177	0xbe1e3a76	-0.15451989
178	0xbe17a9d5	-0.1481088
179	0x3e0f8251	0.14014556
180	0xbdcf1e8c	-0.10113248
181	0xbe95379f	-0.29143998
182	0xbe203315	-0.15644486
183	0xbe3d4c98	-0.1848625
184	0xbe4363da	-0.19081059
185	0xbe232e45	-0.15935619
186	0xbe429ecc	-0.19005889
187	0xbd19833e	-0.037478678
188	0x3e4c30b3	0.19940452
189	0x3eaddf92	0.33959633
190	0x3d07e2ff	0.033175465
191	0x3e158947	0.14603148
192	0x3d4eb044	0.05046107
193	0xbdbaccd4	-0.09121099
194	0xbdb5fb20	-0.08885789
195	0x3e376f43	0.17913537
196	0xbe1f3a78	-0.15549648
197	0xbd54a916	-0.051919065
198	0xbdd5557f	-0.10416698
199	0xbcea231b	-0.028581193

net.6.bias f4 [4]
0	0xbdc325b5	-0.095286764
1	0x3e9b12a3	0.30287656
2	0x3de22802	0.11042787
3	0xbe698b73	-0.22807102
