experts/Pendulum-v0/policy.ckpt (torch, 23031 bytes, 7 tensors)

net.0.weight f4 [50, 3]
0	0xbe08b15f	-0.13348912
1	0x3ea96cd3	0.3309084
2	0x3ec05ce0	0.37570858
3	0x3f0f700b	0.5603034
4	0xbe66a12f	-0.22522424
5	0xbf44cc15	-0.76873904
6	0x3eaafc5d	0.33395663
7	0xbd8c5738	-0.06852573
8	0xbd5c8ecb	-0.053847115
9	0x3f0cdbb7	0.5502276
10	0x3ee89dcc	0.4543289
11	0x3e73114e	0.2373707
12	0x3c9acda9	0.018896895
13	0x3ddd5f74	0.10809222
14	0xbead3191	-0.3382688
15	0xbf08950b	-0.5335242
16	0xbef815ac	-0.48454034
17	0xbf140dd0	-0.57833576
18	0xbeff3e53	-0.49852237
19	0xbd8cbb84	-0.06871703
20	0xbee89f79	-0.45434168
21	0x3e539f6a	0.2066628
22	0xbcea9793	-0.02863673
23	0x3e8709ce	0.26374668
24	0xbedaab88	-0.42708993
25	0x3ed0614f	0.4069924
26	0xbe5d6752	-0.21621445
27	0x3eaede60	0.34154034
28	0xbf0b4120	-0.5439625
29	0xbef655fe	-0.48112482
30	0x3f34901d	0.705324
31	0xbeb06728	-0.34453702
32	0xbea7dad7	-0.3278415
33	0xbe43cd48	-0.19121277
34	0x3e5d4fe1	0.21612503
35	0xbe238a23	-0.15970664
36	0xbe5b91be	-0.21442315
37	0x3f0778a7	0.52918476
38	0xbe83e938	-0.2576387
39	0xbd2e0380	-0.042483807
40	0x3e329a23	0.17441611
41	0x3e3df0bd	0.18548866
42	0xbf127c07	-0.572205
43	0x3e937d43	0.28806505
44	0x3ddda8fa	0.10823245
45	0x3f040948	0.5157666
46	0xbcf0c252	-0.029389534
47	0x3f0e2da7	0.5553841
48	0xbf440b50	-0.7657976
49	0xbeef371f	-0.46721742
50	0xbeabc290	-0.33546877
51	0xbd9ea672	-0.07746591
52	0x3eaa6688	0.3328135
53	0xbde76fd2	-0.11300625
54	0xbf86f38f	-1.0543078
55	0x3f9992c7	1.1997918
56	0x3f000caa	0.50019324
57	0x3f01567d	0.50522596
58	0xbfc9d7f3	-1.5769027
59	0xbeb65dd2	-0.35618454
60	0xbe2e70da	-0.17035237
61	0x3dc8289b	0.0977337
62	0xbeb17b1f	-0.34664246
63	0xbdbe05dc	-0.09278461
64	0x3f12c0cd	0.5732544
65	0x3eaf1273	0.34193763
66	0xbe8c99f2	-0.274612
67	0xbee311d8	-0.4434955
68	0x3ed33e29	0.41258362
69	0x3bfe9ba1	0.0077700173
70	0xbf011a6b	-0.50430936
71	0xbf0016c9	-0.5003477
72	0x3e928ce2	0.2862311
73	0x3ed4a4ec	0.41532075
74	0xbef48771	-0.47759584
75	0x3eabf637	0.33586285
76	0x3e6a5ae6	0.22886238
77	0x3e553cb1	0.20823933
78	0x3ee3f064	0.4451934
79	0x3e20008b	0.15625207
80	0xbcd42e29	-0.025900917
81	0xbe53b22f	-0.2067344
82	0x3edf6fb9	0.43639925
83	0xbe78f94c	-0.24313849
84	0x3f32cc77	0.6984324
85	0xbd918c27	-0.0710681
86	0xbe6460a1	-0.22302486
87	0x3df50234	0.11963311
88	0x3f01d330	0.5071287
89	0x3e4d7aa3	0.20066313
90	0xbf305d26	-0.68892133
91	0xbf23dd27	-0.64009327
92	0xbe5cdc2e	-0.21568367
93	0x3f080daa	0.5314585
94	0x3ece54c6	0.40299052
95	0xbf060057	-0.5234427
96	0x3f15a4c7	0.58454555
97	0x3e672aea	0.22574964
98	0x3e67a461	0.226213
99	0x3e890254	0.2675959
100	0xbe5a53e9	-0.21321072
101	0x3ea0b21a	0.3138588
102	0xbbfd3565	-0.0077273124
103	0xbeb59ee0	-0.35472775
104	0xbf474955	-0.7784627
105	0xbeac0da0	-0.33604145
106	0xbe8e4653	-0.27788028
107	0xbf76e557	-0.96443695
108	0x3ec107f5	0.37701383
109	0x3ed03d19	0.40671614
110	0xbea79b0a	-0.32735473
111	0xbf5e7afc	-0.8690641
112	0x3e8c4fea	0.2740472
113	0x3e798c06	0.24369821
114	0xbf0c7c56	-0.5487722
115	0xbde400e9	-0.11132986
116	0xbf16641b	-0.587465
117	0x3e9595b9	0.29215792
118	0x3ece61fe	0.40309137
119	0x3ef665d4	0.48124564
120	0xbf4b91b3	-0.79519194
121	0xbf14f9ce	-0.5819367
122	0xbe457723	-0.19283728
123	0x3f821840	1.016365
124	0xbed31846	-0.41229457
125	0xbe91323a	-0.28358632
126	0xbf04c893	-0.5186855
127	0x3e847db4	0.25877154
128	0xbe6350c9	-0.22198786
129	0x3edfb156	0.43689984
130	0x3ea98888	0.33111978
131	0xbd01b224	-0.03166403
132	0x3e95ad51	0.29233792
133	0x3e5cbd68	0.21556628
134	0xbf04edc8	-0.51925325
135	0xbe94cde1	-0.29063323
136	0xbe6404e7	-0.22267495
137	0xbf0097dd	-0.50231725
138	0xbd8240b0	-0.063599944
139	0xbe6bdaa4	-0.23032624
140	0xbf1762dd	-0.5913523
141	0x3e934356	0.2876231
142	0x3d973f5c	0.07385132
143	0xbefec5d4	-0.49760306
144	0x3f004ab8	0.5011401
145	0x3dad28e4	0.08455065
146	0x3e87c4f9	0.26517466
147	0x3e5da373	0.21644382
148	0x3eefc720	0.46831608
149	0x3e49c8e5	0.19705541

net.0.bias f4 [50]
0	0x3f15d9f9	0.58535725
1	0xbf00b1c4	-0.5027125
2	0x3f058561	0.52156645
3	0xbf0e203d	-0.5551794
4	0xbe1639a0	-0.1467042
5	0xbedf9938	-0.43671584
6	0x3f152bb4	0.5826981
7	0x3f0dbee4	0.553694
8	0x3eb6c39d	0.35696116
9	0xbc462cc2	-0.012095632
10	0x3f0b0fd6	0.5432104
11	0x3eeca0ed	0.46216527
12	0xbf17b6c4	-0.59263253
13	0x3e1b827e	0.15186498
14	0x3f27918b	0.65456456
15	0x3ea7d33c	0.32778347
16	0x3f867691	1.0504934
17	0xbeec15d4	-0.46110404
18	0x3f699d8c	0.9125602
19	0xbe8eb15a	-0.27869684
20	0x3f0237e8	0.50866556
21	0x3b41d3ed	0.002957578
22	0x3ed293ca	0.4112838
23	0xbeda4782	-0.4263268
24	0x3e7e1c1b	0.24815409
25	0x3f026d74	0.5094826
26	0xbdbcb74c	-0.092146486
27	0x3e716bfa	0.23576346
28	0x3e71cd6e	0.23613521
29	0xbebcf5b1	-0.36906198
30	0xbf317eb3	-0.6933395
31	0xbef921b0	-0.48658514
32	0xbeeba5e5	-0.46025005
33	0xbde7a2f5	-0.113103785
34	0x3ea67803	0.32513437
35	0x3dc8dc5f	0.098076575
36	0x3e9c2590	0.30497408
37	0xbeb9a046	-0.3625509
38	0xbe923189	-0.28553417
39	0xbdbe93f3	-0.09305563
40	0xbf2a2379	-0.66460377
41	0x3f0915e7	0.53549045
42	0x3dd0b852	0.10191406
43	0xbe8ad077	-0.2711217
44	0xbea661e0	-0.32496548
45	0xbe581244	-0.21100718
46	0xbcea0d8c	-0.028570913
47	0x3d5c2cbe	0.053753607
48	0xbed0d65c	-0.40788543
49	0xbd925a9a	-0.07146187

net.2.weight f4 [50, 50]
0	0x3d29af9b	0.041427236
1	0xbd748e6c	-0.059706137
2	0x3d10e655	0.03537591
3	0x3d45ef42	0.048323877
4	0xbd2b910e	-0.04188638
5	0x3debb64f	0.11509382
6	0xbdb345fc	-0.08753583
7	0xbd965333	-0.07340088
8	0xbdef2a0d	-0.116779424
9	0x3b2be9ee	0.0026231962
10	0x3e22d809	0.15902723
11	0xbcd82f37	-0.026389701
12	0x3b525723	0.0032095395
13	0xbd7b23c7	-0.061313417
14	0x3e3506ba	0.17678347
15	0xbd13f965	-0.036126513
16	0x3d162f74	0.03666635
17	0xbdb8fca1	-0.0903256
18	0x3e282ffb	0.16424553
19	0xbdff74da	-0.124734595
20	0xbdd5d79e	-0.10441516
21	0xbdffe476	-0.12494747
22	0x3dbe9f06	0.09307675
23	0xbd852255	-0.06500689
24	0xbd8c1742	-0.068403736
25	0x3d608ac1	0.054819826
26	0x3da5900d	0.08084116
27	0xbdd34808	-0.10316473
28	0xbbbdc4fe	-0.0057913056
29	0xbde8c7b6	-0.11366217
30	0x3e490791	0.19631793
31	0x3d732a21	0.05936635
32	0xbd194054	-0.037414864
33	0x3c8930c9	0.016746895
34	0x3df808a8	0.12111026
35	0x3b9af4b4	0.004728878
36	0xbdd67b84	-0.104727775
37	0xbdfd73fc	-0.12375638
38	0xbdeadd20	-0.114679575
39	0xbd842ea5	-0.06454209
40	0xbd8ca85c	-0.068680495
41	0x3dd4f0b7	0.10397475
42	0xbd33ec3a	-0.043926455
43	0xbd95d014	-0.073150784
44	0xbaffc100	-0.0019512475
45	0x3cbafa62	0.02282447
46	0xbcd7ca80	-0.026341677
47	0x3e049837	0.1294869
48	0xbd60cf02	-0.054884918
49	0xbe4af630	-0.19820476
50	0xbd8d382a	-0.06895478
51	0x3de5bc46	0.11217551
52	0xbd2a882e	-0.041633777
53	0xbe31eeea	-0.17376295
54	0xbdecc34c	-0.115606874
55	0x3cb92dee	0.022604909
56	0xbcf816b4	-0.030284263
57	0x3c4bea26	0.012445962
58	0x3d9c946f	0.07645499
59	0xbced741d	-0.028986031
60	0xbd886bb7	-0.0666117
61	0x3d8f55b7	0.06998771
62	0x3ddf723a	0.10910459
63	0xbdfec834	-0.124405295
64	0xbdcef0f2	-0.101045504
65	0xbd0b6db1	-0.034040157
66	0xbd6c9120	-0.05775559
67	0x3dcf94a2	0.10135771
68	0xbe08d4bf	-0.13362406
69	0x3e21814c	0.15771979
70	0xbe197de9	-0.14989437
71	0x3dcfccd9	0.101464935
72	0xbe07ff1d	-0.13280912
73	0xbcf16b3c	-0.029470079
74	0x3cf48c46	0.029852044
75	0xbd955341	-0.0729127
76	0x39a5ffef	0.00031661938
77	0xbd92036c	-0.07129559
78	0x3c0ce065	0.008598422
79	0xbda5de27	-0.08099013
80	0xbd5a0ece	-0.053236775
81	0xbdc47780	-0.09593105
82	0xb7ebb880	-2.8100098e-05
83	0x3e0506a1	0.1299081
84	0x3e03cba5	0.12870653
85	0xbd533cf5	-0.051571805
86	0xbe033897	-0.12814556
87	0x3d8ed29f	0.069737665
88	0xbcf7f17b	-0.030266514
89	0x3d533386	0.05156281
90	0xbdab2afd	-0.08357809
91	0xbd7087fa	-0.058723427
92	0xbde5c2a8	-0.11218768
93	0xbcad98dc	-0.021191053
94	0x3a07743a	0.00051671604
95	0xbd971828	-0.07377654
96	0x3c414481	0.011796118
97	0x3a0ee03e	0.0005450285
98	0xbddb8ec4	-0.1072059
99	0xbddfee17	-0.10934084
100	0x3bc37e15	0.005965958
101	0xbd6e4db1	-0.05817956
102	0xbd7d5d66	-0.06185665
103	0xbd20c2ca	-0.039248265
104	0xbe05cd14	-0.13066512
105	0xbc93f6ac	-0.018061958
106	0xbc61f89e	-0.013792185
107	0x3d8ad81d	0.067795016
108	0xbcca785e	-0.024715599
109	0x3d6fbe74	0.05853124
110	0x3da7e8ea	0.08198722
111	0x3df856f2	0.121259585
112	0x3de19b84	0.110159904
113	0x3dafb072	0.08578576
114	0x3bfb6ab4	0.007672632
115	0x3d5472e5	0.051867384
116	0x3cc9ee6d	0.024649823
117	0x3df6a4dc	0.12043163
118	0x3d089e18	0.033353895
119	0xbe0faa7e	-0.14029881
120	0x3d82f003	0.06393435
121	0x3d86dd7b	0.06585213
122	0x3d3ae410	0.045627654
123	0x3dc1b252	0.0945784
124	0x3cc5d2f6	0.024148446
125	0xbd033f1f	-0.03204262
126	0x3db5fe4b	0.08886393
127	0xbdde0c5c	-0.10842201
128	0x3dba7def	0.09106051
129	0x3db3a117	0.0877096
130	0x3e0bfb3e	0.1367006
131	0xbcc45f44	-0.023971207
132	0x3d567389	0.052356277
133	0xbdd9f6db	-0.10642787
134	0x3d59288a	0.053017177
135	0x3bb0dab6	0.005397166
136	0xbdff0dfd	-0.1245384
137	0xbe19e448	-0.15028489
138	0x3d8d80bc	0.0690932
139	0x3d8cbae9	0.06871588
140	0x3d8c0fb7	0.06838935
141	0x3c8bb06b	0.017051896
142	0xbcc5c1d2	-0.024140272
143	0x3da639f5	0.08116523
144	0x3d0cd69c	0.034384355
145	0xbdad0b4f	-0.084494226
146	0xbdce99b8	-0.10087913
147	0x3c5aae19	0.013347172
148	0xbd5481e2	-0.05188168
149	0xbe102db0	-0.14079928
150	0x3ddcc0a2	0.10778929
151	0x3d563170	0.05229324
152	0xbd5db1c5	-0.054124612
153	0xbe07e4f3	-0.13270931
154	0x3c7e9e94	0.015540738
155	0xbc04dc1f	-0.008109122
156	0xbd5ef02b	-0.05442826
157	0xbd1883f3	-0.03723521
158	0x3d0843d0	0.033267796
159	0x3dad9b94	0.0847694
160	0xbdfe4be9	-0.124168225
161	0x3e01f867	0.12692414
162	0x3e1b5570	0.1516931
163	0x3d67189a	0.056419946
164	0xbe1b5262	-0.15168145
165	0xbd1e7a54	-0.03869088
166	0x3e5819b3	0.21103553
167	0x3d6a6532	0.057225414
168	0xbe68dcd7	-0.22740494
169	0x3e163fa9	0.14672722
170	0x3e208f21	0.156796
171	0x3e3517fa	0.17684928
172	0x3e1ab7b8	0.15109146
173	0x3a503fdf	0.0007944088
174	0xbcef1f53	-0.029189741
175	0x3de703d2	0.112800255
176	0xbe0e55b4	-0.1389988
177	0xbc155591	-0.009114639
178	0xbe1c60fb	-0.1527137
179	0xbe21ef55	-0.15813954
180	0xbe10f9e2	-0.14157823
181	0xbd2c17eb	-0.042014997
182	0xbe4ce9be	-0.2001104
183	0xbd15d234	-0.03657742
184	0x3b17f904	0.0023189196
185	0xbe28072c	-0.16408986
186	0xbdcbd442	-0.09952594
187	0x3d96c98b	0.0736266
188	0xb9cec654	-0.00039439148
189	0xbce38984	-0.027775533
190	0xbe1e925c	-0.15485519
191	0xbdbe1ddf	-0.09283041
192	0x3ce309ea	0.027714688
193	0x3e09e189	0.13464941
194	0x3bd34546	0.006447467
195	0xbdc475db	-0.09592792
196	0x3ce4f68a	0.02794959
197	0xbbbe25fa	-0.005802867
198	0x3c6a3dee	0.014296992
199	0xbdaa00d0	-0.08300936
200	0x3df2a8a1	0.1184857
201	0x3affdff0	0.0019521695
202	0x3ce6ec4c	0.028188847
203	0xbb1e8f6e	-0.0024194377
204	0x3d119372	0.035541005
205	0xbb86c33a	-0.0041126283
206	0xbd441aab	-0.047876995
207	0xbdb0101f	-0.08596825
208	0x3df9f736	0.12205355
209	0x3caaab5c	0.020833664
210	0xbd4e7f48	-0.050414354
211	0x3d04d38e	0.032428317
212	0x3d6f3e24	0.05840887
213	0xba06fb1f	-0.00051491143
214	0x3d7e067f	0.062017914
215	0xbdb7e740	-0.08979654
216	0xbd6a6349	-0.057223592
217	0x3e018375	0.12647803
218	0x3ca11dbf	0.019667504
219	0xbd67c612	-0.05658538
220	0x3d20f34c	0.039294526
221	0x3dc24a8b	0.09486874
222	0x3ca7ece6	0.020498704
223	0x3d1142cc	0.035464093
224	0x3de00bdf	0.10939764
225	0xbdcbcba7	-0.09950953
226	0xbdee017a	-0.116213754
227	0x3d91e6a0	0.07124066
228	0xbd8191b6	-0.0632662
229	0x3d98c3aa	0.07459195
230	0x3d3defc5	0.04637124
231	0xbd086cba	-0.033306815
232	0x3b8aa258	0.0042307787
233	0xbd93d2ad	-0.072179176
234	0x3e1726bf	0.14760874
235	0xbdda8ecd	-0.10671768
236	0xbd485cc2	-0.048916586
237	0x3d41be1d	0.047300447
238	0x3dad2417	0.08454149
239	0x3d9169bf	0.071002476
240	0xbd21e00a	-0.0395203
241	0x3d177c9b	0.036984067
242	0x3d87abd6	0.06624572
243	0x3db19187	0.08670335
244	0x3dd51fd6	0.10406463
245	0x3c8eec06	0.01744653
246	0xbb8ca482	-0.004292072
247	0xbd21958e	-0.039449267
248	0xbdeafe64	-0.114743024
249	0xbdb87d34	-0.090082556
250	0x3cbcdd25	0.023054669
251	0xbdd1597a	-0.102221444
252	0xbd9ae333	-0.07562866
253	0xbdbd0a3a	-0.09230466
254	0xbddb266c	-0.10700688
255	0xbd305347	-0.04304817

net.2.bias f4 [50]
0	0x3e08db34	0.1336487
1	0x3d8af88d	0.067856885
2	0xbdf7b318	-0.12094706
3	0x3d47b3be	0.0487554
4	0x3da9aa24	0.08284405
5	0xbc413346	-0.01179201
6	0xbb8ec4c2	-0.0043569515
7	0xbddcd045	-0.10781912
8	0x3df91851	0.12162841
9	0xbd907629	-0.07053787
10	0x3e1b2a7b	0.15152924
11	0xbb0b41e6	-0.0021248995
12	0xbdc57423	-0.09641292
13	0x3d30024e	0.042970948
14	0x3dcef9f4	0.101062685
15	0x3d933923	0.07188632
16	0x3d1fa4df	0.038975593
17	0x3d991287	0.07474237
18	0xbd0bc0d0	-0.034119427
19	0xbd58b647	-0.05290821
20	0x3c02019b	0.007934953
21	0x3e947b5d	0.2900037
22	0xbdc15197	-0.0943939
23	0x3dcc4e62	0.09975888
24	0xbd28e030	-0.041229427
25	0xbe224112	-0.15845135
26	0xbcebe023	-0.0287934
27	0xbdd405e5	-0.10352687
28	0xbe0f77fe	-0.14010617
29	0x3dc7f1f5	0.097629465
30	0xbdaffc80	-0.085930824
31	0x3e218bc7	0.15775977
32	0xbd88b2b9	-0.06674714
33	0x3daa4596	0.08314054
34	0xbbf11eca	-0.0073584067
35	0xbe43d52f	-0.19124292
36	0xbda4b7fa	-0.08042903
37	0xbde60987	-0.11232286
38	0xbd09ed26	-0.033673428
39	0xbc31a236	-0.010841897
40	0xbdbf8404	-0.09351352
41	0xbdfc3d4a	-0.123163775
42	0x3d329285	0.043596763
43	0x3d369101	0.04457188
44	0x3e7c10c9	0.24615778
45	0xbe3e3df4	-0.1857832
46	0x3bcb948c	0.0062127765
47	0x3d38ab8b	0.04508547
48	0xbd377d10	-0.044797003
49	0x3aa26468	0.0012389543

net.4.weight f4 [50, 50]
0	0x3e3a8d61	0.18217994
1	0xbe3ffc61	-0.18748619
2	0x3e279b67	0.16367875
3	0xbde7da74	-0.113209635
4	0x3da3bdcd	0.07995186
5	0xbd1a9f9a	-0.037749864
6	0xbc871113	-0.016487634
7	0x3d361b78	0.04445979
8	0x3d536691	0.051611487
9	0xbc5e9bc8	-0.013586946
10	0x3d8dc19d	0.069216944
11	0xbbb3a5b8	-0.0054824017
12	0xbe6a6aea	-0.22892347
13	0x3d8ac569	0.06775934
14	0x3de73e13	0.112911366
15	0x3dcd3804	0.1002045
16	0xbe0dbd02	-0.13841632
17	0x3b8bc98c	0.0042659696
18	0x3e483c46	0.19554242
19	0xbd3c6a22	-0.045999654
20	0x3dbc8299	0.09204597
21	0x3d48b67f	0.049002167
22	0x3dc09043	0.09402516
23	0xbc49b3dc	-0.012310948
24	0xbd80b0b1	-0.06283701
25	0xbe7b3d85	-0.24535187
26	0x397e654c	0.00024261064
27	0x3e2bcb89	0.16776861
28	0xbe75280e	-0.23941061
29	0xbdc98a7e	-0.098408684
30	0x3c2864fa	0.010277981
31	0x3df2eb99	0.11861343
32	0xbd5abe82	-0.05340434
33	0xbd973886	-0.07383828
34	0x3dcb6321	0.09931017
35	0xbe30f599	-0.17281188
36	0x3d81a6ce	0.063306436
37	0x3d81771b	0.06321546
38	0xbe1eff2f	-0.15527032
39	0x3d37dbc6	0.044887327
40	0xbd97b032	-0.074066535
41	0xbe664437	-0.2248696
42	0x3d92a904	0.071611434
43	0x3d91adb7	0.071132116
44	0x3e673da9	0.22582115
45	0xbe2ce3df	-0.16883801
46	0x3d974ad2	0.07387318
47	0x3c705910	0.014669672
48	0xbcbdc1eb	-0.023163756
49	0x3e08cfb0	0.13360476
50	0x3cdc7dc5	0.02691544
51	0xbc7cc4ec	-0.015427809
52	0x3d4138d2	0.04717333
53	0xbe1b9aa4	-0.1519571
54	0xbd94ae72	-0.07259835
55	0x3c875c82	0.016523603
56	0x3bbe3eea	0.00580584
57	0x3d8eee8a	0.069790915
58	0xbcec1f9a	-0.028823663
59	0xbdecdc08	-0.11565405
60	0x3da6b3c9	0.0813976
61	0x3cbcbb5d	0.02303856
62	0x3b9dd567	0.0048166993
63	0x3e159a93	0.14609747
64	0xbc867358	-0.016412422
65	0xbcb9ea58	-0.022694752
66	0x3d83170e	0.06400882
67	0x3e03c070	0.12866378
68	0x3ca6571f	0.020305214
69	0x3d93cfbe	0.07217358
70	0xbd84eb88	-0.064902365
71	0xbe4ef97b	-0.20212357
72	0x3c9416d7	0.018077297
73	0x3da6b4ef	0.08139979
74	0x3e153cc3	0.1457396
75	0xbe05a1d5	-0.13050015
76	0xbdba6f69	-0.09103281
77	0x3e332ec1	0.17498304
78	0x3c9acf18	0.018897578
79	0xbe0dd397	-0.13850246
80	0xbcf730e7	-0.030174686
81	0x3e05c6c8	0.1306411
82	0x3df96f99	0.12179489
83	0x3e0f4578	0.13991344
84	0x3db63fdf	0.08898901
85	0xbce1f083	-0.027580505
86	0x3d6113aa	0.054950394
87	0x3df29afe	0.11845969
88	0xbd944447	-0.07239585
89	0xbdf22aff	-0.11824607
90	0xbd0b5221	-0.03401387
91	0x3d3d065d	0.046148647
92	0xbcba69cd	-0.022755528
93	0xbd3a53e1	-0.04549015
94	0x3d681473	0.056660127
95	0xbdeda188	-0.11603075
96	0x3d5c84d5	0.053837616
97	0x3e1de62e	0.15419838
98	0x3d9cfcee	0.0766543
99	0x3e261d18	0.16222036
100	0x3dc5355b	0.096293174
101	0x3dddacc0	0.10823965
102	0x3e019932	0.12656096
103	0xbd7622e4	-0.060091868
104	0x3df259a5	0.118335046
105	0x3ded8f06	0.11599545
106	0xbdcf016c	-0.10107693
107	0x3e027e97	0.12743603
108	0x3de83765	0.11338691
109	0x3dbc63de	0.09198736
110	0x3dd220ad	0.10260139
111	0x3ba26c81	0.0049567823
112	0xbbe98cfc	-0.0071274024
113	0x3de8c937	0.11366504
114	0xbd0b55b6	-0.034017287
115	0xbe0a89ae	-0.13529083
116	0x3e0b7cc1	0.13621809
117	0xbca325ee	-0.019915547
118	0x3d48f33b	0.049060088
119	0x3d8e47ef	0.06947314
120	0xbdc40671	-0.09571541
121	0xbd82dc45	-0.06389669
122	0xbd09fabc	-0.033686385
123	0xbbe9d5d6	-0.007136087
124	0xbbdde3f8	-0.0067715608
125	0xbd3cc9c8	-0.04609087
126	0xbde962eb	-0.1139582
127	0xbd498b2d	-0.049204994
128	0x3cfc9d4a	0.03083672
129	0xbde1d0b6	-0.110261366
130	0xbbc59479	-0.006029662
131	0xbdf1711c	-0.11789152
132	0x3d03185c	0.032005653
133	0x3c7ac4f0	0.015305743
134	0xbd7b950e	-0.061421447
135	0xbd9c6cc0	-0.0763793
136	0xbdbce271	-0.09222878
137	0x3d795e5f	0.060881015
138	0x3e033866	0.12814483
139	0x3d135541	0.035969976
140	0x3c227c6f	0.009917363
141	0xbdea3fb7	-0.11437934
142	0xbd4f5bc1	-0.050624613
143	0x3dcd74db	0.10032054
144	0x3d1743ca	0.036929883
145	0x3dad92ec	0.08475289
146	0xbe03a7ff	-0.12857054
147	0x3da2d7cd	0.07951317
148	0xbe05bd17	-0.13060413
149	0x3d9ab579	0.075541444
150	0xbe09ed0a	-0.1346933
151	0xbc1ce6f9	-0.009576553
152	0x3e0c3662	0.1369262
153	0xbd8fb829	-0.07017548
154	0xbcfbb02b	-0.030723652
155	0x3dff2745	0.12458662
156	0xbd133fb3	-0.03594942
157	0xbdb7956a	-0.08964045
158	0xbdad1bd7	-0.08452576
159	0x3df80849	0.12110955
160	0xbdcccf04	-0.100004226
161	0x3d39b62d	0.045339752
162	0x3d166449	0.036716733
163	0x3d96ea00	0.07368851
164	0xbdb8d1b9	-0.090243764
165	0xbc64e2d0	-0.013970092
166	0xbdf8a81f	-0.121414416
167	0xbdc1749b	-0.09446069
168	0x3e0d7761	0.1381507
169	0xbd96731f	-0.07346176
170	0xbdce3259	-0.10068197
171	0x3d6b9c03	0.05752183
172	0xbcbba977	-0.022907956
173	0x3d8278f1	0.06370724
174	0xbe0f5c5a	-0.14000073
175	0x3c44c990	0.012010947
176	0xbe0f9a0c	-0.14023608
177	0xbcc78f33	-0.024360275
178	0xbe0bf3fa	-0.13667288
179	0x3d8de0df	0.069276564
180	0x3dbaed7c	0.09127328
181	0xbd3abaf4	-0.04558845
182	0x3e0912fa	0.13386145
183	0x3e07e663	0.1327148
184	0xbe07ab9e	-0.1324906
185	0x3d32b93b	0.04363368
186	0x3dfe9c7e	0.12432192
187	0xbd9f9094	-0.07791248
188	0x3c804f5c	0.015662841
189	0x3cf73a6e	0.030179229
190	0xbe029b89	-0.12754644
191	0x3de6b630	0.11265218
192	0xbda02541	-0.078196056
193	0xbd31ebc9	-0.043437753
194	0x3dc6014c	0.09668216
195	0xbda7c343	-0.0819154
196	0xbcb95083	-0.022621399
197	0x3d0f7e64	0.035032645
198	0xbbcde5e2	-0.0062835077
199	0xbc9d04de	-0.01916736
200	0x3d815441	0.06314898
201	0x3ce99f05	0.02851821
202	0x3e03217d	0.12805744
203	0xbd83accd	-0.064294435
204	0x3d43d0ee	0.047806673
205	0x3bb36175	0.0054742643
206	0xbdb421b3	-0.0879549
207	0x3dc68cb9	0.096948095
208	0x3dc421a9	0.09576733
209	0x3df546f2	0.11976422
210	0x3e1e00f8	0.15430057
211	0xbc2c084c	-0.010500025
212	0xbc72c8de	-0.014818398
213	0x3e0ad62a	0.1355826
214	0x3d018225	0.031618256
215	0xbda8eaea	-0.08247931
216	0xbe0d1ae4	-0.13779789
217	0x3d974f5e	0.07388185
218	0xbbd653b1	-0.0065407385
219	0x3d0f31b2	0.034959503
220	0x3ba2095c	0.0049449634
221	0xbe329b33	-0.17442016
222	0xbdd84c4f	-0.1056143
223	0xbd623801	-0.05522919
224	0x3d9ddd16	0.077081844
225	0xbe331b52	-0.1749089
226	0xbdf766b3	-0.12080135
227	0x3e1c80a5	0.15283449
228	0xbd1e5b6b	-0.0386614
229	0xbe1d8c28	-0.15385497
230	0xbd230d54	-0.039807633
231	0x3dd84112	0.10559286
232	0xbdb5fcf2	-0.08886136
233	0x3b80bde8	0.0039288886
234	0x3dd5529c	0.10416147
235	0xbe359417	-0.17732273
236	0x3df29cb2	0.118462935
237	0x3ca2fbe8	0.019895509
238	0xbe2036b7	-0.15645872
239	0x3a4e1256	0.00078610086
240	0x3b3b2c5b	0.0028560373
241	0x3d705577	0.058675256
242	0x3c12a3cb	0.008950184
243	0xbd9c19a0	-0.07622075
244	0x3dfffc76	0.12499325
245	0xbd410a2b	-0.047128838
246	0x3db25415	0.087074436
247	0x3c7e8122	0.015533717
248	0x3dd89ac9	0.10576398
249	0xbd926e29	-0.07149918
250	0xbdb307c4	-0.087417156
251	0xbdd5a08a	-0.10431011
252	0xbd44ec9b	-0.048077207
253	0xbdcecc9e	-0.100976214
254	0xbd926757	-0.07148617
255	0xbdfed264	-0.124424726

net.4.bias f4 [50]
0	0xbd8f2985	-0.06990341
1	0xbc0228c1	-0.007944287
2	0xbd5bd004	-0.053665176
3	0x3c590a57	0.013247094
4	0xbcd4cec9	-0.02597751
5	0x3d540c70	0.051769674
6	0x3de89012	0.11355604
7	0x3bb3cce0	0.0054870695
8	0x3d042eb6	0.03227111
9	0x3de927b4	0.11384526
10	0xbd1b9d6b	-0.037991922
11	0xbb83ea72	-0.004025751
12	0xbd580200	-0.052736282
13	0x3ddfd0e3	0.10928514
14	0x3d89b212	0.06723417
15	0x3c8c1506	0.017099869
16	0x3df328c6	0.11873011
17	0x3d992a0c	0.07478723
18	0x3da97933	0.0827507
19	0x3ce9c1b0	0.02853474
20	0x3daa077a	0.08302207
21	0xbdb9d978	-0.09074682
22	0xbd483913	-0.048882555
23	0x3df2044c	0.11817226
24	0xbddf2367	-0.10895424
25	0xbbd0458d	-0.0063559473
26	0x3cd7bef6	0.026336174
27	0x3de2f939	0.11082692
28	0xbd2f8bab	-0.042857807
29	0x3c687e83	0.014190319
30	0xbde8e901	-0.11372567
31	0xbd8c9bde	-0.06865667
32	0x3d140d0e	0.036145262
33	0xbdf26e0c	-0.11837396
34	0x3d1361b7	0.03598186
35	0xbe047957	-0.12936912
36	0x3cf69644	0.03010095
37	0xbd7eef57	-0.06223997
38	0xbb1c977a	-0.0023893998
39	0x3e034b3d	0.1282167
40	0x3d9d1465	0.076699056
41	0x3d49b715	0.049246866
42	0x3d5378da	0.051628925
43	0x3caf871e	0.021426734
44	0x3dbbbda6	0.09167032
45	0xbd9e8ddc	-0.07741901
46	0x3d40c056	0.047058426
47	0x3cf08058	0.029358074
48	0xbd2a05db	-0.04150949
49	0xbdf61833	-0.120163344

net.6.weight f4 [1, 50]
0	0xbf18a97a	-0.596336
1	0xbe8a767d	-0.27043524
2	0xbd59a8dc	-0.053139552
3	0xbd1c42d1	-0.03814966
4	0xbe876bfe	-0.2644958
5	0xbe0ba4ec	-0.13637131
6	0x3e375d3c	0.1790666
7	0x3eacd889	0.33758953
8	0xbd26db97	-0.04073676
9	0x3efadd4e	0.48996967
10	0xbe38f2bc	-0.18061346
11	0x3e0002ca	0.12501064
12	0xbe9d947d	-0.3077735
13	0x3ea95aa8	0.33076978
14	0x3e88a2e9	0.2668679
15	0xbefdf804	-0.49603283
16	0x3e33d5b0	0.17561984
17	0x3c8e87c6	0.017398726
18	0xbe572aee	-0.2101247
19	0xbebc3c52	-0.3676477
20	0xbd5c08c4	-0.053719297
21	0x3dc9dd28	0.09856635
22	0xbe4a84d3	-0.19777231
23	0x3e95ae68	0.29234624
24	0xbecdf597	-0.40226433
25	0xbecb3ed4	-0.39696372
26	0xbe6fa8a7	-0.2340418
27	0x3e7e2634	0.24819261
28	0x3af248a9	0.0018484789
29	0x3ec29d25	0.38010517
30	0x3dab5e9f	0.08367657
31	0xbc1fe236	-0.009758523
32	0xbe74361a	-0.23848763
33	0x3e55a895	0.2086509
34	0x3eb2866a	0.34868175
35	0x392a2c40	0.00016228948
36	0xbd5df492	-0.05418832
37	0x3e27bdf5	0.16381057
38	0xbe284e23	-0.16436057
39	0xbe142da8	-0.14470541
40	0x3f0de180	0.5542221
41	0xbc7814aa	-0.015141645
42	0x3cb30d7c	0.021857016
43	0xbee0878b	-0.4385341
44	0x3f21b90f	0.63173
45	0x3e60fb79	0.21970929
46	0x3c6827f6	0.014169684
47	0x3b8ddbd3	0.0043291836
48	0xbf8074d7	-1.0035657
49	0x3d8d3404	0.06894687
